7767517
257 288
MemoryData               110:12                   0 1 110:12 -23330=4,1,112,1,1 0=112
MemoryData               133:12                   0 1 133:12 -23330=4,1,192,1,1 0=192
MemoryData               144:12                   0 1 144:12 -23330=4,1,192,1,1 0=192
MemoryData               14:11                    0 1 14:11 -23330=4,1,32,1,1 0=32
MemoryData               155:12                   0 1 155:12 -23330=4,1,192,1,1 0=192
MemoryData               166:12                   0 1 166:12 -23330=4,1,192,1,1 0=192
MemoryData               177:12                   0 1 177:12 -23330=4,1,192,1,1 0=192
MemoryData               188:12                   0 1 188:12 -23330=4,1,192,1,1 0=192
MemoryData               199:12                   0 1 199:12 -23330=4,1,192,1,1 0=192
MemoryData               22:11                    0 1 22:11 -23330=4,1,48,1,1 0=48
MemoryData               33:11                    0 1 33:11 -23330=4,1,112,1,1 0=112
MemoryData               44:11                    0 1 44:11 -23330=4,1,112,1,1 0=112
MemoryData               55:11                    0 1 55:11 -23330=4,1,112,1,1 0=112
MemoryData               77:11                    0 1 77:11 -23330=4,1,96,1,1 0=96
MemoryData               88:11                    0 1 88:11 -23330=4,1,96,1,1 0=96
Input                    op_201                   0 1 204:12 -23330=4,3,224,224,3 0=224 1=224 2=3
Convolution              op_202                   1 1 204:12 206:12 -23330=4,3,112,112,32 0=32 1=3 3=2 4=-233 5=1 6=864
Swish                    op_203                   1 1 206:12 208:12 -23330=4,3,112,112,32
Convolution              op_204                   1 1 208:12 210:12 -23330=4,3,112,112,16 0=16 1=3 4=-233 5=1 6=4608
Swish                    op_205                   1 1 210:12 212:12_splitncnn_0 -23330=4,3,112,112,16
Convolution              op_207                   1 1 212:12_splitncnn_0 215:12 -23330=4,3,56,56,64 0=64 1=3 3=2 4=-233 5=1 6=9216
Swish                    op_208                   1 1 215:12 217:12 -23330=4,3,56,56,64
Convolution              op_209                   1 1 217:12 219:12 -23330=4,3,56,56,32 0=32 1=1 4=-233 5=1 6=2048
Split                    splitncnn_1              1 2 219:12 219:12_splitncnn_0 219:12_splitncnn_1 -23330=8,3,56,56,32,3,56,56,32
Convolution              op_210                   1 1 219:12_splitncnn_1 221:12 -23330=4,3,56,56,128 0=128 1=3 4=-233 5=1 6=36864
Swish                    op_211                   1 1 221:12 223:12 -23330=4,3,56,56,128
Convolution              op_212                   1 1 223:12 224:12 -23330=4,3,56,56,32 0=32 1=1 4=-233 6=4096
Eltwise                  op_213                   2 1 219:12_splitncnn_0 224:12 225:12 -23330=4,3,56,56,32 0=1
BinaryOp                 op_214                   2 1 225:12 14:11 226:12_splitncnn_0 -23330=4,3,56,56,32
Convolution              op_216                   1 1 226:12_splitncnn_0 229:12 -23330=4,3,28,28,128 0=128 1=3 3=2 4=-233 5=1 6=36864
Swish                    op_217                   1 1 229:12 231:12 -23330=4,3,28,28,128
Convolution              op_218                   1 1 231:12 233:12 -23330=4,3,28,28,48 0=48 1=1 4=-233 5=1 6=6144
Split                    splitncnn_3              1 2 233:12 233:12_splitncnn_0 233:12_splitncnn_1 -23330=8,3,28,28,48,3,28,28,48
Convolution              op_219                   1 1 233:12_splitncnn_1 235:12 -23330=4,3,28,28,192 0=192 1=3 4=-233 5=1 6=82944
Swish                    op_220                   1 1 235:12 237:12 -23330=4,3,28,28,192
Convolution              op_221                   1 1 237:12 238:12 -23330=4,3,28,28,48 0=48 1=1 4=-233 6=9216
Eltwise                  op_222                   2 1 233:12_splitncnn_0 238:12 239:12 -23330=4,3,28,28,48 0=1
BinaryOp                 op_223                   2 1 239:12 22:11 240:12_splitncnn_0 -23330=4,3,28,28,48
Convolution              op_225                   1 1 240:12_splitncnn_0 243:12 -23330=4,3,28,28,192 0=192 1=1 4=-233 5=1 6=9216
Swish                    op_226                   1 1 243:12 245:12 -23330=4,3,28,28,192
ConvolutionDepthWise     op_227                   1 1 245:12 248:12 -23330=4,3,14,14,192 0=192 1=3 3=2 4=-233 5=1 6=1728 7=192
Swish                    op_229                   1 1 248:12 250:12 -23330=4,3,14,14,192
Split                    splitncnn_5              1 2 250:12 250:12_splitncnn_0 250:12_splitncnn_1 -23330=8,3,14,14,192,3,14,14,192
Reduction                op_230                   1 1 250:12_splitncnn_1 251:12 -23330=4,3,1,1,192 0=3 1=0 -23303=2,2,3 4=1
Convolution              op_231                   1 1 251:12 253:12 -23330=4,3,1,1,12 0=12 1=1 4=-233 5=1 6=2304
Swish                    op_232                   1 1 253:12 255:12 -23330=4,3,1,1,12
Convolution              op_233                   1 1 255:12 258:12 -23330=4,3,1,1,192 0=192 1=1 4=-233 5=1 6=2304 9=4
BinaryOp                 op_235                   2 1 250:12_splitncnn_0 258:12 259:12 -23330=4,3,14,14,192 0=2
Convolution              op_236                   1 1 259:12 261:12 -23330=4,3,14,14,96 0=96 1=1 4=-233 5=1 6=18432
Split                    splitncnn_6              1 2 261:12 261:12_splitncnn_0 261:12_splitncnn_1 -23330=8,3,14,14,96,3,14,14,96
Convolution              op_237                   1 1 261:12_splitncnn_1 263:12 -23330=4,3,14,14,384 0=384 1=1 4=-233 5=1 6=36864
Swish                    op_238                   1 1 263:12 265:12 -23330=4,3,14,14,384
ConvolutionDepthWise     op_239                   1 1 265:12 268:12 -23330=4,3,14,14,384 0=384 1=3 4=-233 5=1 6=3456 7=384
Swish                    op_241                   1 1 268:12 270:12 -23330=4,3,14,14,384
Split                    splitncnn_7              1 2 270:12 270:12_splitncnn_0 270:12_splitncnn_1 -23330=8,3,14,14,384,3,14,14,384
Reduction                op_242                   1 1 270:12_splitncnn_1 271:12 -23330=4,3,1,1,384 0=3 1=0 -23303=2,2,3 4=1
Convolution              op_243                   1 1 271:12 273:12 -23330=4,3,1,1,24 0=24 1=1 4=-233 5=1 6=9216
Swish                    op_244                   1 1 273:12 275:12 -23330=4,3,1,1,24
Convolution              op_245                   1 1 275:12 278:12 -23330=4,3,1,1,384 0=384 1=1 4=-233 5=1 6=9216 9=4
BinaryOp                 op_247                   2 1 270:12_splitncnn_0 278:12 279:12 -23330=4,3,14,14,384 0=2
Convolution              op_248                   1 1 279:12 280:12 -23330=4,3,14,14,96 0=96 1=1 4=-233 6=36864
Eltwise                  op_249                   2 1 261:12_splitncnn_0 280:12 281:12 -23330=4,3,14,14,96 0=1
BinaryOp                 op_250                   2 1 281:12 77:11 282:12 -23330=4,3,14,14,96
Split                    splitncnn_8              1 2 282:12 282:12_splitncnn_0 282:12_splitncnn_1 -23330=8,3,14,14,96,3,14,14,96
Convolution              op_251                   1 1 282:12_splitncnn_1 284:12 -23330=4,3,14,14,384 0=384 1=1 4=-233 5=1 6=36864
Swish                    op_252                   1 1 284:12 286:12 -23330=4,3,14,14,384
ConvolutionDepthWise     op_253                   1 1 286:12 289:12 -23330=4,3,14,14,384 0=384 1=3 4=-233 5=1 6=3456 7=384
Swish                    op_255                   1 1 289:12 291:12 -23330=4,3,14,14,384
Split                    splitncnn_9              1 2 291:12 291:12_splitncnn_0 291:12_splitncnn_1 -23330=8,3,14,14,384,3,14,14,384
Reduction                op_256                   1 1 291:12_splitncnn_1 292:12 -23330=4,3,1,1,384 0=3 1=0 -23303=2,2,3 4=1
Convolution              op_257                   1 1 292:12 294:12 -23330=4,3,1,1,24 0=24 1=1 4=-233 5=1 6=9216
Swish                    op_258                   1 1 294:12 296:12 -23330=4,3,1,1,24
Convolution              op_259                   1 1 296:12 299:12 -23330=4,3,1,1,384 0=384 1=1 4=-233 5=1 6=9216 9=4
BinaryOp                 op_261                   2 1 291:12_splitncnn_0 299:12 300:12 -23330=4,3,14,14,384 0=2
Convolution              op_262                   1 1 300:12 301:12 -23330=4,3,14,14,96 0=96 1=1 4=-233 6=36864
Eltwise                  op_263                   2 1 282:12_splitncnn_0 301:12 302:12 -23330=4,3,14,14,96 0=1
BinaryOp                 op_264                   2 1 302:12 88:11 303:12 -23330=4,3,14,14,96
Convolution              op_265                   1 1 303:12 305:12 -23330=4,3,14,14,576 0=576 1=1 4=-233 5=1 6=55296
Swish                    op_266                   1 1 305:12 307:12 -23330=4,3,14,14,576
ConvolutionDepthWise     op_267                   1 1 307:12 310:12 -23330=4,3,14,14,576 0=576 1=3 4=-233 5=1 6=5184 7=576
Swish                    op_269                   1 1 310:12 312:12 -23330=4,3,14,14,576
Split                    splitncnn_10             1 2 312:12 312:12_splitncnn_0 312:12_splitncnn_1 -23330=8,3,14,14,576,3,14,14,576
Reduction                op_270                   1 1 312:12_splitncnn_1 313:12 -23330=4,3,1,1,576 0=3 1=0 -23303=2,2,3 4=1
Convolution              op_271                   1 1 313:12 315:12 -23330=4,3,1,1,24 0=24 1=1 4=-233 5=1 6=13824
Swish                    op_272                   1 1 315:12 317:12 -23330=4,3,1,1,24
Convolution              op_273                   1 1 317:12 320:12 -23330=4,3,1,1,576 0=576 1=1 4=-233 5=1 6=13824 9=4
BinaryOp                 op_275                   2 1 312:12_splitncnn_0 320:12 321:12 -23330=4,3,14,14,576 0=2
Convolution              op_276                   1 1 321:12 323:12 -23330=4,3,14,14,112 0=112 1=1 4=-233 5=1 6=64512
Split                    splitncnn_11             1 2 323:12 323:12_splitncnn_0 323:12_splitncnn_1 -23330=8,3,14,14,112,3,14,14,112
Convolution              op_277                   1 1 323:12_splitncnn_1 325:12 -23330=4,3,14,14,672 0=672 1=1 4=-233 5=1 6=75264
Swish                    op_278                   1 1 325:12 327:12 -23330=4,3,14,14,672
ConvolutionDepthWise     op_279                   1 1 327:12 330:12 -23330=4,3,14,14,672 0=672 1=3 4=-233 5=1 6=6048 7=672
Swish                    op_281                   1 1 330:12 332:12 -23330=4,3,14,14,672
Split                    splitncnn_12             1 2 332:12 332:12_splitncnn_0 332:12_splitncnn_1 -23330=8,3,14,14,672,3,14,14,672
Reduction                op_282                   1 1 332:12_splitncnn_1 333:12 -23330=4,3,1,1,672 0=3 1=0 -23303=2,2,3 4=1
Convolution              op_283                   1 1 333:12 335:12 -23330=4,3,1,1,28 0=28 1=1 4=-233 5=1 6=18816
Swish                    op_284                   1 1 335:12 337:12 -23330=4,3,1,1,28
Convolution              op_285                   1 1 337:12 340:12 -23330=4,3,1,1,672 0=672 1=1 4=-233 5=1 6=18816 9=4
BinaryOp                 op_287                   2 1 332:12_splitncnn_0 340:12 341:12 -23330=4,3,14,14,672 0=2
Convolution              op_288                   1 1 341:12 342:12 -23330=4,3,14,14,112 0=112 1=1 4=-233 6=75264
Eltwise                  op_289                   2 1 323:12_splitncnn_0 342:12 343:12 -23330=4,3,14,14,112 0=1
BinaryOp                 op_290                   2 1 343:12 110:12 344:12 -23330=4,3,14,14,112
Split                    splitncnn_13             1 2 344:12 344:12_splitncnn_0 344:12_splitncnn_1 -23330=8,3,14,14,112,3,14,14,112
Convolution              op_291                   1 1 344:12_splitncnn_1 346:12 -23330=4,3,14,14,672 0=672 1=1 4=-233 5=1 6=75264
Swish                    op_292                   1 1 346:12 348:12 -23330=4,3,14,14,672
ConvolutionDepthWise     op_293                   1 1 348:12 351:12 -23330=4,3,14,14,672 0=672 1=3 4=-233 5=1 6=6048 7=672
Swish                    op_295                   1 1 351:12 353:12 -23330=4,3,14,14,672
Split                    splitncnn_14             1 2 353:12 353:12_splitncnn_0 353:12_splitncnn_1 -23330=8,3,14,14,672,3,14,14,672
Reduction                op_296                   1 1 353:12_splitncnn_1 354:12 -23330=4,3,1,1,672 0=3 1=0 -23303=2,2,3 4=1
Convolution              op_297                   1 1 354:12 356:12 -23330=4,3,1,1,28 0=28 1=1 4=-233 5=1 6=18816
Swish                    op_298                   1 1 356:12 358:12 -23330=4,3,1,1,28
Convolution              op_299                   1 1 358:12 361:12 -23330=4,3,1,1,672 0=672 1=1 4=-233 5=1 6=18816 9=4
BinaryOp                 op_301                   2 1 353:12_splitncnn_0 361:12 362:12 -23330=4,3,14,14,672 0=2
Convolution              op_302                   1 1 362:12 363:12 -23330=4,3,14,14,112 0=112 1=1 4=-233 6=75264
Eltwise                  op_303                   2 1 363:12 344:12_splitncnn_0 364:12 -23330=4,3,14,14,112 0=1
BinaryOp                 op_304                   2 1 364:12 33:11 365:12 -23330=4,3,14,14,112
Split                    splitncnn_15             1 2 365:12 365:12_splitncnn_0 365:12_splitncnn_1 -23330=8,3,14,14,112,3,14,14,112
Convolution              op_305                   1 1 365:12_splitncnn_1 367:12 -23330=4,3,14,14,672 0=672 1=1 4=-233 5=1 6=75264
Swish                    op_306                   1 1 367:12 369:12 -23330=4,3,14,14,672
ConvolutionDepthWise     op_307                   1 1 369:12 372:12 -23330=4,3,14,14,672 0=672 1=3 4=-233 5=1 6=6048 7=672
Swish                    op_309                   1 1 372:12 374:12 -23330=4,3,14,14,672
Split                    splitncnn_16             1 2 374:12 374:12_splitncnn_0 374:12_splitncnn_1 -23330=8,3,14,14,672,3,14,14,672
Reduction                op_310                   1 1 374:12_splitncnn_1 375:12 -23330=4,3,1,1,672 0=3 1=0 -23303=2,2,3 4=1
Convolution              op_311                   1 1 375:12 377:12 -23330=4,3,1,1,28 0=28 1=1 4=-233 5=1 6=18816
Swish                    op_312                   1 1 377:12 379:12 -23330=4,3,1,1,28
Convolution              op_313                   1 1 379:12 382:12 -23330=4,3,1,1,672 0=672 1=1 4=-233 5=1 6=18816 9=4
BinaryOp                 op_315                   2 1 374:12_splitncnn_0 382:12 383:12 -23330=4,3,14,14,672 0=2
Convolution              op_316                   1 1 383:12 384:12 -23330=4,3,14,14,112 0=112 1=1 4=-233 6=75264
Eltwise                  op_317                   2 1 365:12_splitncnn_0 384:12 385:12 -23330=4,3,14,14,112 0=1
BinaryOp                 op_318                   2 1 385:12 44:11 386:12 -23330=4,3,14,14,112
Split                    splitncnn_17             1 2 386:12 386:12_splitncnn_0 386:12_splitncnn_1 -23330=8,3,14,14,112,3,14,14,112
Convolution              op_319                   1 1 386:12_splitncnn_1 388:12 -23330=4,3,14,14,672 0=672 1=1 4=-233 5=1 6=75264
Swish                    op_320                   1 1 388:12 390:12 -23330=4,3,14,14,672
ConvolutionDepthWise     op_321                   1 1 390:12 393:12 -23330=4,3,14,14,672 0=672 1=3 4=-233 5=1 6=6048 7=672
Swish                    op_323                   1 1 393:12 395:12 -23330=4,3,14,14,672
Split                    splitncnn_18             1 2 395:12 395:12_splitncnn_0 395:12_splitncnn_1 -23330=8,3,14,14,672,3,14,14,672
Reduction                op_324                   1 1 395:12_splitncnn_1 396:12 -23330=4,3,1,1,672 0=3 1=0 -23303=2,2,3 4=1
Convolution              op_325                   1 1 396:12 398:12 -23330=4,3,1,1,28 0=28 1=1 4=-233 5=1 6=18816
Swish                    op_326                   1 1 398:12 400:12 -23330=4,3,1,1,28
Convolution              op_327                   1 1 400:12 403:12 -23330=4,3,1,1,672 0=672 1=1 4=-233 5=1 6=18816 9=4
BinaryOp                 op_329                   2 1 395:12_splitncnn_0 403:12 404:12 -23330=4,3,14,14,672 0=2
Convolution              op_330                   1 1 404:12 405:12 -23330=4,3,14,14,112 0=112 1=1 4=-233 6=75264
Eltwise                  op_331                   2 1 386:12_splitncnn_0 405:12 406:12 -23330=4,3,14,14,112 0=1
BinaryOp                 op_332                   2 1 406:12 55:11 407:12_splitncnn_0 -23330=4,3,14,14,112
Convolution              op_334                   1 1 407:12_splitncnn_0 410:12 -23330=4,3,14,14,672 0=672 1=1 4=-233 5=1 6=75264
Swish                    op_335                   1 1 410:12 412:12 -23330=4,3,14,14,672
ConvolutionDepthWise     op_336                   1 1 412:12 415:12 -23330=4,3,7,7,672 0=672 1=3 3=2 4=-233 5=1 6=6048 7=672
Swish                    op_338                   1 1 415:12 417:12 -23330=4,3,7,7,672
Split                    splitncnn_20             1 2 417:12 417:12_splitncnn_0 417:12_splitncnn_1 -23330=8,3,7,7,672,3,7,7,672
Reduction                op_339                   1 1 417:12_splitncnn_1 418:12 -23330=4,3,1,1,672 0=3 1=0 -23303=2,2,3 4=1
Convolution              op_340                   1 1 418:12 420:12 -23330=4,3,1,1,28 0=28 1=1 4=-233 5=1 6=18816
Swish                    op_341                   1 1 420:12 422:12 -23330=4,3,1,1,28
Convolution              op_342                   1 1 422:12 425:12 -23330=4,3,1,1,672 0=672 1=1 4=-233 5=1 6=18816 9=4
BinaryOp                 op_344                   2 1 417:12_splitncnn_0 425:12 426:12 -23330=4,3,7,7,672 0=2
Convolution              op_345                   1 1 426:12 428:12 -23330=4,3,7,7,192 0=192 1=1 4=-233 5=1 6=129024
Split                    splitncnn_21             1 2 428:12 428:12_splitncnn_0 428:12_splitncnn_1 -23330=8,3,7,7,192,3,7,7,192
Convolution              op_346                   1 1 428:12_splitncnn_1 430:12 -23330=4,3,7,7,1152 0=1152 1=1 4=-233 5=1 6=221184
Swish                    op_347                   1 1 430:12 432:12 -23330=4,3,7,7,1152
ConvolutionDepthWise     op_348                   1 1 432:12 435:12 -23330=4,3,7,7,1152 0=1152 1=3 4=-233 5=1 6=10368 7=1152
Swish                    op_350                   1 1 435:12 437:12 -23330=4,3,7,7,1152
Split                    splitncnn_22             1 2 437:12 437:12_splitncnn_0 437:12_splitncnn_1 -23330=8,3,7,7,1152,3,7,7,1152
Reduction                op_351                   1 1 437:12_splitncnn_1 438:12 -23330=4,3,1,1,1152 0=3 1=0 -23303=2,2,3 4=1
Convolution              op_352                   1 1 438:12 440:12 -23330=4,3,1,1,48 0=48 1=1 4=-233 5=1 6=55296
Swish                    op_353                   1 1 440:12 442:12 -23330=4,3,1,1,48
Convolution              op_354                   1 1 442:12 445:12 -23330=4,3,1,1,1152 0=1152 1=1 4=-233 5=1 6=55296 9=4
BinaryOp                 op_356                   2 1 437:12_splitncnn_0 445:12 446:12 -23330=4,3,7,7,1152 0=2
Convolution              op_357                   1 1 446:12 447:12 -23330=4,3,7,7,192 0=192 1=1 4=-233 6=221184
Eltwise                  op_358                   2 1 428:12_splitncnn_0 447:12 448:12 -23330=4,3,7,7,192 0=1
BinaryOp                 op_359                   2 1 448:12 133:12 449:12 -23330=4,3,7,7,192
Split                    splitncnn_23             1 2 449:12 449:12_splitncnn_0 449:12_splitncnn_1 -23330=8,3,7,7,192,3,7,7,192
Convolution              op_360                   1 1 449:12_splitncnn_1 451:12 -23330=4,3,7,7,1152 0=1152 1=1 4=-233 5=1 6=221184
Swish                    op_361                   1 1 451:12 453:12 -23330=4,3,7,7,1152
ConvolutionDepthWise     op_362                   1 1 453:12 456:12 -23330=4,3,7,7,1152 0=1152 1=3 4=-233 5=1 6=10368 7=1152
Swish                    op_364                   1 1 456:12 458:12 -23330=4,3,7,7,1152
Split                    splitncnn_24             1 2 458:12 458:12_splitncnn_0 458:12_splitncnn_1 -23330=8,3,7,7,1152,3,7,7,1152
Reduction                op_365                   1 1 458:12_splitncnn_1 459:12 -23330=4,3,1,1,1152 0=3 1=0 -23303=2,2,3 4=1
Convolution              op_366                   1 1 459:12 461:12 -23330=4,3,1,1,48 0=48 1=1 4=-233 5=1 6=55296
Swish                    op_367                   1 1 461:12 463:12 -23330=4,3,1,1,48
Convolution              op_368                   1 1 463:12 466:12 -23330=4,3,1,1,1152 0=1152 1=1 4=-233 5=1 6=55296 9=4
BinaryOp                 op_370                   2 1 458:12_splitncnn_0 466:12 467:12 -23330=4,3,7,7,1152 0=2
Convolution              op_371                   1 1 467:12 468:12 -23330=4,3,7,7,192 0=192 1=1 4=-233 6=221184
Eltwise                  op_372                   2 1 449:12_splitncnn_0 468:12 469:12 -23330=4,3,7,7,192 0=1
BinaryOp                 op_373                   2 1 469:12 144:12 470:12 -23330=4,3,7,7,192
Split                    splitncnn_25             1 2 470:12 470:12_splitncnn_0 470:12_splitncnn_1 -23330=8,3,7,7,192,3,7,7,192
Convolution              op_374                   1 1 470:12_splitncnn_1 472:12 -23330=4,3,7,7,1152 0=1152 1=1 4=-233 5=1 6=221184
Swish                    op_375                   1 1 472:12 474:12 -23330=4,3,7,7,1152
ConvolutionDepthWise     op_376                   1 1 474:12 477:12 -23330=4,3,7,7,1152 0=1152 1=3 4=-233 5=1 6=10368 7=1152
Swish                    op_378                   1 1 477:12 479:12 -23330=4,3,7,7,1152
Split                    splitncnn_26             1 2 479:12 479:12_splitncnn_0 479:12_splitncnn_1 -23330=8,3,7,7,1152,3,7,7,1152
Reduction                op_379                   1 1 479:12_splitncnn_1 480:12 -23330=4,3,1,1,1152 0=3 1=0 -23303=2,2,3 4=1
Convolution              op_380                   1 1 480:12 482:12 -23330=4,3,1,1,48 0=48 1=1 4=-233 5=1 6=55296
Swish                    op_381                   1 1 482:12 484:12 -23330=4,3,1,1,48
Convolution              op_382                   1 1 484:12 487:12 -23330=4,3,1,1,1152 0=1152 1=1 4=-233 5=1 6=55296 9=4
BinaryOp                 op_384                   2 1 479:12_splitncnn_0 487:12 488:12 -23330=4,3,7,7,1152 0=2
Convolution              op_385                   1 1 488:12 489:12 -23330=4,3,7,7,192 0=192 1=1 4=-233 6=221184
Eltwise                  op_386                   2 1 470:12_splitncnn_0 489:12 490:12 -23330=4,3,7,7,192 0=1
BinaryOp                 op_387                   2 1 490:12 155:12 491:12 -23330=4,3,7,7,192
Split                    splitncnn_27             1 2 491:12 491:12_splitncnn_0 491:12_splitncnn_1 -23330=8,3,7,7,192,3,7,7,192
Convolution              op_388                   1 1 491:12_splitncnn_1 493:12 -23330=4,3,7,7,1152 0=1152 1=1 4=-233 5=1 6=221184
Swish                    op_389                   1 1 493:12 495:12 -23330=4,3,7,7,1152
ConvolutionDepthWise     op_390                   1 1 495:12 498:12 -23330=4,3,7,7,1152 0=1152 1=3 4=-233 5=1 6=10368 7=1152
Swish                    op_392                   1 1 498:12 500:12 -23330=4,3,7,7,1152
Split                    splitncnn_28             1 2 500:12 500:12_splitncnn_0 500:12_splitncnn_1 -23330=8,3,7,7,1152,3,7,7,1152
Reduction                op_393                   1 1 500:12_splitncnn_1 501:12 -23330=4,3,1,1,1152 0=3 1=0 -23303=2,2,3 4=1
Convolution              op_394                   1 1 501:12 503:12 -23330=4,3,1,1,48 0=48 1=1 4=-233 5=1 6=55296
Swish                    op_395                   1 1 503:12 505:12 -23330=4,3,1,1,48
Convolution              op_396                   1 1 505:12 508:12 -23330=4,3,1,1,1152 0=1152 1=1 4=-233 5=1 6=55296 9=4
BinaryOp                 op_398                   2 1 500:12_splitncnn_0 508:12 509:12 -23330=4,3,7,7,1152 0=2
Convolution              op_399                   1 1 509:12 510:12 -23330=4,3,7,7,192 0=192 1=1 4=-233 6=221184
Eltwise                  op_400                   2 1 491:12_splitncnn_0 510:12 511:12 -23330=4,3,7,7,192 0=1
BinaryOp                 op_401                   2 1 511:12 166:12 512:12 -23330=4,3,7,7,192
Split                    splitncnn_29             1 2 512:12 512:12_splitncnn_0 512:12_splitncnn_1 -23330=8,3,7,7,192,3,7,7,192
Convolution              op_402                   1 1 512:12_splitncnn_1 514:12 -23330=4,3,7,7,1152 0=1152 1=1 4=-233 5=1 6=221184
Swish                    op_403                   1 1 514:12 516:12 -23330=4,3,7,7,1152
ConvolutionDepthWise     op_404                   1 1 516:12 519:12 -23330=4,3,7,7,1152 0=1152 1=3 4=-233 5=1 6=10368 7=1152
Swish                    op_406                   1 1 519:12 521:12 -23330=4,3,7,7,1152
Split                    splitncnn_30             1 2 521:12 521:12_splitncnn_0 521:12_splitncnn_1 -23330=8,3,7,7,1152,3,7,7,1152
Reduction                op_407                   1 1 521:12_splitncnn_1 522:12 -23330=4,3,1,1,1152 0=3 1=0 -23303=2,2,3 4=1
Convolution              op_408                   1 1 522:12 524:12 -23330=4,3,1,1,48 0=48 1=1 4=-233 5=1 6=55296
Swish                    op_409                   1 1 524:12 526:12 -23330=4,3,1,1,48
Convolution              op_410                   1 1 526:12 529:12 -23330=4,3,1,1,1152 0=1152 1=1 4=-233 5=1 6=55296 9=4
BinaryOp                 op_412                   2 1 521:12_splitncnn_0 529:12 530:12 -23330=4,3,7,7,1152 0=2
Convolution              op_413                   1 1 530:12 531:12 -23330=4,3,7,7,192 0=192 1=1 4=-233 6=221184
Eltwise                  op_414                   2 1 512:12_splitncnn_0 531:12 532:12 -23330=4,3,7,7,192 0=1
BinaryOp                 op_415                   2 1 532:12 177:12 533:12 -23330=4,3,7,7,192
Split                    splitncnn_31             1 2 533:12 533:12_splitncnn_0 533:12_splitncnn_1 -23330=8,3,7,7,192,3,7,7,192
Convolution              op_416                   1 1 533:12_splitncnn_1 535:12 -23330=4,3,7,7,1152 0=1152 1=1 4=-233 5=1 6=221184
Swish                    op_417                   1 1 535:12 537:12 -23330=4,3,7,7,1152
ConvolutionDepthWise     op_418                   1 1 537:12 540:12 -23330=4,3,7,7,1152 0=1152 1=3 4=-233 5=1 6=10368 7=1152
Swish                    op_420                   1 1 540:12 542:12 -23330=4,3,7,7,1152
Split                    splitncnn_32             1 2 542:12 542:12_splitncnn_0 542:12_splitncnn_1 -23330=8,3,7,7,1152,3,7,7,1152
Reduction                op_421                   1 1 542:12_splitncnn_1 543:12 -23330=4,3,1,1,1152 0=3 1=0 -23303=2,2,3 4=1
Convolution              op_422                   1 1 543:12 545:12 -23330=4,3,1,1,48 0=48 1=1 4=-233 5=1 6=55296
Swish                    op_423                   1 1 545:12 547:12 -23330=4,3,1,1,48
Convolution              op_424                   1 1 547:12 550:12 -23330=4,3,1,1,1152 0=1152 1=1 4=-233 5=1 6=55296 9=4
BinaryOp                 op_426                   2 1 542:12_splitncnn_0 550:12 551:12 -23330=4,3,7,7,1152 0=2
Convolution              op_427                   1 1 551:12 552:12 -23330=4,3,7,7,192 0=192 1=1 4=-233 6=221184
Eltwise                  op_428                   2 1 533:12_splitncnn_0 552:12 553:12 -23330=4,3,7,7,192 0=1
BinaryOp                 op_429                   2 1 553:12 188:12 554:12 -23330=4,3,7,7,192
Split                    splitncnn_33             1 2 554:12 554:12_splitncnn_0 554:12_splitncnn_1 -23330=8,3,7,7,192,3,7,7,192
Convolution              op_430                   1 1 554:12_splitncnn_1 556:12 -23330=4,3,7,7,1152 0=1152 1=1 4=-233 5=1 6=221184
Swish                    op_431                   1 1 556:12 558:12 -23330=4,3,7,7,1152
ConvolutionDepthWise     op_432                   1 1 558:12 561:12 -23330=4,3,7,7,1152 0=1152 1=3 4=-233 5=1 6=10368 7=1152
Swish                    op_434                   1 1 561:12 563:12 -23330=4,3,7,7,1152
Split                    splitncnn_34             1 2 563:12 563:12_splitncnn_0 563:12_splitncnn_1 -23330=8,3,7,7,1152,3,7,7,1152
Reduction                op_435                   1 1 563:12_splitncnn_1 564:12 -23330=4,3,1,1,1152 0=3 1=0 -23303=2,2,3 4=1
Convolution              op_436                   1 1 564:12 566:12 -23330=4,3,1,1,48 0=48 1=1 4=-233 5=1 6=55296
Swish                    op_437                   1 1 566:12 568:12 -23330=4,3,1,1,48
Convolution              op_438                   1 1 568:12 571:12 -23330=4,3,1,1,1152 0=1152 1=1 4=-233 5=1 6=55296 9=4
BinaryOp                 op_440                   2 1 563:12_splitncnn_0 571:12 572:12 -23330=4,3,7,7,1152 0=2
Convolution              op_441                   1 1 572:12 573:12 -23330=4,3,7,7,192 0=192 1=1 4=-233 6=221184
Eltwise                  op_442                   2 1 554:12_splitncnn_0 573:12 574:12 -23330=4,3,7,7,192 0=1
BinaryOp                 op_443                   2 1 574:12 199:12 575:12_splitncnn_0 -23330=4,3,7,7,192
Convolution              op_445                   1 1 575:12_splitncnn_0 578:12 -23330=4,3,7,7,1280 0=1280 1=1 4=-233 5=1 6=245760
Swish                    op_446                   1 1 578:12 580:12 -23330=4,3,7,7,1280
Pooling                  op_447                   1 1 580:12 581:12 -23330=4,1,1280,1,1 0=1 4=1
InnerProduct             op_448                   1 1 581:12 584:12 -23330=4,1,1000,1,1 0=1000 1=1 2=1280000
