7767517
115 130
Input                    in0                      0 1 in0
Convolution              convrelu_0               1 1 in0 1 0=16 1=3 11=3 12=1 13=2 14=1 2=1 3=2 4=1 5=1 6=432 9=1
Convolution              convrelu_1               1 1 1 2 0=32 1=3 11=3 12=1 13=2 14=1 2=1 3=2 4=1 5=1 6=4608 9=1
Convolution              convrelu_2               1 1 2 3 0=32 1=3 11=3 12=1 13=1 14=1 2=1 3=1 4=1 5=1 6=9216 9=1
Convolution              convrelu_3               1 1 3 4 0=32 1=3 11=3 12=1 13=1 14=1 2=1 3=1 4=1 5=1 6=9216 9=1
Split                    splitncnn_0              1 2 4 5 6
Convolution              convrelu_4               1 1 6 7 0=64 1=3 11=3 12=1 13=2 14=1 2=1 3=2 4=1 5=1 6=18432 9=1
Convolution              convrelu_5               1 1 7 8 0=64 1=3 11=3 12=1 13=1 14=1 2=1 3=1 4=1 5=1 6=36864 9=1
Convolution              convrelu_6               1 1 8 9 0=64 1=3 11=3 12=1 13=1 14=1 2=1 3=1 4=1 5=1 6=36864 9=1
Convolution              convrelu_7               1 1 9 10 0=64 1=3 11=3 12=1 13=1 14=1 2=1 3=1 4=1 5=1 6=36864 9=1
Convolution              convrelu_8               1 1 10 11 0=64 1=3 11=3 12=1 13=1 14=1 2=1 3=1 4=1 5=1 6=36864 9=1
Split                    splitncnn_1              1 3 11 12 13 14
Convolution              convrelu_9               1 1 14 15 0=128 1=3 11=3 12=1 13=2 14=1 2=1 3=2 4=1 5=1 6=73728 9=1
Convolution              convrelu_10              1 1 15 16 0=128 1=3 11=3 12=1 13=1 14=1 2=1 3=1 4=1 5=1 6=147456 9=1
Convolution              convrelu_11              1 1 16 17 0=128 1=3 11=3 12=1 13=1 14=1 2=1 3=1 4=1 5=1 6=147456 9=1
Convolution              convrelu_12              1 1 17 18 0=128 1=3 11=3 12=1 13=1 14=1 2=1 3=1 4=1 5=1 6=147456 9=1
Convolution              convrelu_13              1 1 18 19 0=128 1=3 11=3 12=1 13=1 14=1 2=1 3=1 4=1 5=1 6=147456 9=1
Convolution              convrelu_14              1 1 19 20 0=128 1=3 11=3 12=1 13=1 14=1 2=1 3=1 4=1 5=1 6=147456 9=1
Convolution              convrelu_15              1 1 20 21 0=128 1=3 11=3 12=1 13=1 14=1 2=1 3=1 4=1 5=1 6=147456 9=1
Split                    splitncnn_2              1 2 21 22 23
Convolution              convrelu_16              1 1 23 24 0=256 1=3 11=3 12=1 13=2 14=1 2=1 3=2 4=1 5=1 6=294912 9=1
Convolution              convrelu_17              1 1 24 25 0=256 1=3 11=3 12=1 13=1 14=1 2=1 3=1 4=1 5=1 6=589824 9=1
Convolution              convrelu_18              1 1 25 26 0=256 1=3 11=3 12=1 13=1 14=1 2=1 3=1 4=1 5=1 6=589824 9=1
Split                    splitncnn_3              1 2 26 27 28
Convolution              convrelu_19              1 1 28 29 0=128 1=1 11=1 12=1 13=1 14=0 2=1 3=1 4=0 5=1 6=32768 9=1
Convolution              convrelu_20              1 1 29 30 0=128 1=3 11=3 12=1 13=1 14=1 2=1 3=1 4=1 5=1 6=147456 9=1
Convolution              convrelu_21              1 1 30 31 0=128 1=1 11=1 12=1 13=1 14=0 2=1 3=1 4=0 5=1 6=16384 9=1
Split                    splitncnn_4              1 2 31 32 33
Convolution              convrelu_22              1 1 27 34 0=128 1=1 11=1 12=1 13=1 14=0 2=1 3=1 4=0 5=1 6=32768 9=1
Pooling                  maxpool2d_71             1 1 33 35 0=0 1=5 11=5 12=1 13=2 2=1 3=2 5=1
Split                    splitncnn_5              1 2 35 36 37
Pooling                  maxpool2d_72             1 1 37 38 0=0 1=5 11=5 12=1 13=2 2=1 3=2 5=1
Split                    splitncnn_6              1 2 38 39 40
Pooling                  maxpool2d_73             1 1 40 41 0=0 1=5 11=5 12=1 13=2 2=1 3=2 5=1
Concat                   cat_0                    4 1 32 36 39 41 42 0=0
Convolution              convrelu_23              1 1 42 43 0=128 1=1 11=1 12=1 13=1 14=0 2=1 3=1 4=0 5=1 6=65536 9=1
Convolution              convrelu_24              1 1 43 44 0=128 1=3 11=3 12=1 13=1 14=1 2=1 3=1 4=1 5=1 6=147456 9=1
Concat                   cat_1                    2 1 34 44 45 0=0
Convolution              convrelu_25              1 1 45 46 0=256 1=1 11=1 12=1 13=1 14=0 2=1 3=1 4=0 5=1 6=65536 9=1
Convolution              convrelu_26              1 1 46 47 0=64 1=1 11=1 12=1 13=1 14=0 2=1 3=1 4=0 5=1 6=16384 9=1
Split                    splitncnn_7              1 2 47 48 49
Deconvolution            deconv_69                1 1 49 50 0=64 1=2 11=2 12=1 13=2 14=0 18=0 19=0 2=1 3=2 4=0 5=1 6=16384
Convolution              convrelu_27              1 1 22 51 0=64 1=1 11=1 12=1 13=1 14=0 2=1 3=1 4=0 5=1 6=8192 9=1
Convolution              convrelu_28              1 1 13 52 0=64 1=1 11=1 12=1 13=1 14=0 2=1 3=1 4=0 5=1 6=4096 9=1
Convolution              convrelu_29              1 1 52 53 0=64 1=3 11=3 12=1 13=2 14=1 2=1 3=2 4=1 5=1 6=36864 9=1
Concat                   cat_2                    3 1 50 51 53 54 0=0
Convolution              convrelu_30              1 1 54 55 0=64 1=1 11=1 12=1 13=1 14=0 2=1 3=1 4=0 5=1 6=12288 9=1
Convolution              convrelu_31              1 1 55 56 0=64 1=3 11=3 12=1 13=1 14=1 2=1 3=1 4=1 5=1 6=36864 9=1
Convolution              convrelu_32              1 1 56 57 0=64 1=3 11=3 12=1 13=1 14=1 2=1 3=1 4=1 5=1 6=36864 9=1
Convolution              convrelu_33              1 1 57 58 0=64 1=3 11=3 12=1 13=1 14=1 2=1 3=1 4=1 5=1 6=36864 9=1
Convolution              convrelu_34              1 1 58 59 0=64 1=3 11=3 12=1 13=1 14=1 2=1 3=1 4=1 5=1 6=36864 9=1
Convolution              convrelu_35              1 1 59 60 0=32 1=1 11=1 12=1 13=1 14=0 2=1 3=1 4=0 5=1 6=2048 9=1
Split                    splitncnn_8              1 2 60 61 62
Deconvolution            deconv_70                1 1 62 63 0=32 1=2 11=2 12=1 13=2 14=0 18=0 19=0 2=1 3=2 4=0 5=1 6=4096
Convolution              convrelu_36              1 1 12 64 0=32 1=1 11=1 12=1 13=1 14=0 2=1 3=1 4=0 5=1 6=2048 9=1
Convolution              convrelu_37              1 1 5 65 0=32 1=1 11=1 12=1 13=1 14=0 2=1 3=1 4=0 5=1 6=1024 9=1
Convolution              convrelu_38              1 1 65 66 0=32 1=3 11=3 12=1 13=2 14=1 2=1 3=2 4=1 5=1 6=9216 9=1
Concat                   cat_3                    3 1 63 64 66 67 0=0
Convolution              convrelu_39              1 1 67 68 0=32 1=1 11=1 12=1 13=1 14=0 2=1 3=1 4=0 5=1 6=3072 9=1
Convolution              convrelu_40              1 1 68 69 0=32 1=3 11=3 12=1 13=1 14=1 2=1 3=1 4=1 5=1 6=9216 9=1
Convolution              convrelu_41              1 1 69 70 0=32 1=3 11=3 12=1 13=1 14=1 2=1 3=1 4=1 5=1 6=9216 9=1
Convolution              convrelu_42              1 1 70 71 0=32 1=3 11=3 12=1 13=1 14=1 2=1 3=1 4=1 5=1 6=9216 9=1
Convolution              convrelu_43              1 1 71 72 0=32 1=3 11=3 12=1 13=1 14=1 2=1 3=1 4=1 5=1 6=9216 9=1
Split                    splitncnn_9              1 2 72 73 74
Convolution              convrelu_44              1 1 74 75 0=32 1=3 11=3 12=1 13=2 14=1 2=1 3=2 4=1 5=1 6=9216 9=1
Concat                   cat_4                    2 1 75 61 76 0=0
Convolution              convrelu_45              1 1 76 77 0=64 1=3 11=3 12=1 13=1 14=1 2=1 3=1 4=1 5=1 6=36864 9=1
Convolution              convrelu_46              1 1 77 78 0=64 1=3 11=3 12=1 13=1 14=1 2=1 3=1 4=1 5=1 6=36864 9=1
Convolution              convrelu_47              1 1 78 79 0=64 1=3 11=3 12=1 13=1 14=1 2=1 3=1 4=1 5=1 6=36864 9=1
Convolution              convrelu_48              1 1 79 80 0=64 1=3 11=3 12=1 13=1 14=1 2=1 3=1 4=1 5=1 6=36864 9=1
Split                    splitncnn_10             1 2 80 81 82
Convolution              convrelu_49              1 1 82 83 0=64 1=3 11=3 12=1 13=2 14=1 2=1 3=2 4=1 5=1 6=36864 9=1
Concat                   cat_5                    2 1 83 48 84 0=0
Convolution              convrelu_50              1 1 84 85 0=128 1=3 11=3 12=1 13=1 14=1 2=1 3=1 4=1 5=1 6=147456 9=1
Convolution              convrelu_51              1 1 85 86 0=128 1=3 11=3 12=1 13=1 14=1 2=1 3=1 4=1 5=1 6=147456 9=1
Convolution              convrelu_52              1 1 86 87 0=128 1=3 11=3 12=1 13=1 14=1 2=1 3=1 4=1 5=1 6=147456 9=1
Convolution              convrelu_53              1 1 87 88 0=128 1=3 11=3 12=1 13=1 14=1 2=1 3=1 4=1 5=1 6=147456 9=1
Convolution              conv_54                  1 1 73 89 0=32 1=1 11=1 12=1 13=1 14=0 2=1 3=1 4=0 5=1 6=1024
Swish                    silu_131                 1 1 89 90
Split                    splitncnn_11             1 2 90 91 92
Convolution              conv_55                  1 1 92 93 0=32 1=3 11=3 12=1 13=1 14=1 2=1 3=1 4=1 5=1 6=9216
Swish                    silu_132                 1 1 93 94
Convolution              conv_57                  1 1 91 95 0=32 1=3 11=3 12=1 13=1 14=1 2=1 3=1 4=1 5=1 6=9216
Swish                    silu_133                 1 1 95 96
Convolution              conv_58                  1 1 96 97 0=4 1=1 11=1 12=1 13=1 14=0 2=1 3=1 4=0 5=1 6=128
Convolution              convsigmoid_54           1 1 94 98 0=80 1=1 11=1 12=1 13=1 14=0 2=1 3=1 4=0 5=1 6=2560 9=4
Reshape                  reshape_142              1 1 98 99 0=-1 1=80
Reshape                  reshape_143              1 1 97 100 0=-1 1=4
Convolution              conv_59                  1 1 81 101 0=64 1=1 11=1 12=1 13=1 14=0 2=1 3=1 4=0 5=1 6=4096
Swish                    silu_134                 1 1 101 102
Split                    splitncnn_12             1 2 102 103 104
Convolution              conv_60                  1 1 104 105 0=64 1=3 11=3 12=1 13=1 14=1 2=1 3=1 4=1 5=1 6=36864
Swish                    silu_135                 1 1 105 106
Convolution              conv_62                  1 1 103 107 0=64 1=3 11=3 12=1 13=1 14=1 2=1 3=1 4=1 5=1 6=36864
Swish                    silu_136                 1 1 107 108
Convolution              conv_63                  1 1 108 109 0=4 1=1 11=1 12=1 13=1 14=0 2=1 3=1 4=0 5=1 6=256
Convolution              convsigmoid_55           1 1 106 110 0=80 1=1 11=1 12=1 13=1 14=0 2=1 3=1 4=0 5=1 6=5120 9=4
Reshape                  reshape_144              1 1 110 111 0=-1 1=80
Reshape                  reshape_145              1 1 109 112 0=-1 1=4
Convolution              conv_64                  1 1 88 113 0=128 1=1 11=1 12=1 13=1 14=0 2=1 3=1 4=0 5=1 6=16384
Swish                    silu_137                 1 1 113 114
Split                    splitncnn_13             1 2 114 115 116
Convolution              conv_65                  1 1 116 117 0=128 1=3 11=3 12=1 13=1 14=1 2=1 3=1 4=1 5=1 6=147456
Swish                    silu_138                 1 1 117 118
Convolution              conv_67                  1 1 115 119 0=128 1=3 11=3 12=1 13=1 14=1 2=1 3=1 4=1 5=1 6=147456
Swish                    silu_139                 1 1 119 120
Convolution              conv_68                  1 1 120 121 0=4 1=1 11=1 12=1 13=1 14=0 2=1 3=1 4=0 5=1 6=512
Convolution              convsigmoid_56           1 1 118 122 0=80 1=1 11=1 12=1 13=1 14=0 2=1 3=1 4=0 5=1 6=10240 9=4
Reshape                  reshape_146              1 1 122 123 0=-1 1=80
Reshape                  reshape_147              1 1 121 124 0=-1 1=4
Concat                   cat_6                    3 1 99 111 123 125 0=1
Permute                  permute_140              1 1 125 126 0=1
Concat                   cat_7                    3 1 100 112 124 127 0=1
Permute                  permute_141              1 1 127 128 0=1
Concat                   cat_8                    2 1 128 126 out0 0=1
