7767517
91 114
Input                    in0                      0 1 in0
Split                    splitncnn_0              1 2 in0 1 2
Input                    in1                      0 1 in1
Split                    splitncnn_1              1 4 in1 4 5 6 7
Input                    in2                      0 1 in2
Split                    splitncnn_2              1 4 in2 9 10 11 12
Input                    in3                      0 1 in3
Split                    splitncnn_3              1 2 in3 14 15
Gemm                     gemm_0                   1 1 15 16 10=4 2=0 3=1 4=0 5=1 6=1 7=1 8=15360 9=256
Slice                    chunk_0                  1 4 16 17 18 19 20 -23300=4,-233,-233,-233,-233 1=1
TanH                     tanh_18                  1 1 18 21
TanH                     tanh_19                  1 1 20 22
RMSNorm                  rmsn_22                  1 1 2 23 0=3840 1=1.000000e-05 2=1
BinaryOp                 add_0                    1 1 17 24 0=0 1=1 2=1.0
BinaryOp                 mul_1                    2 1 23 24 25 0=2
Split                    splitncnn_4              1 3 25 26 27 28
Gemm                     gemm_1                   1 1 28 29 10=-1 2=0 3=1 4=0 5=1 6=1 7=0 8=3840 9=3840
Gemm                     gemm_2                   1 1 27 30 10=-1 2=0 3=1 4=0 5=1 6=1 7=0 8=3840 9=3840
Gemm                     gemm_3                   1 1 26 31 10=-1 2=0 3=1 4=0 5=1 6=1 7=0 8=3840 9=3840
Reshape                  unflatten_42             1 1 29 32 0=128 1=30 2=-1
Reshape                  unflatten_43             1 1 30 33 0=128 1=30 2=-1
Reshape                  unflatten_44             1 1 31 34 0=128 1=30 2=-1
RMSNorm                  rmsn_23                  1 1 32 35 0=128 1=1.000000e-05 2=1
RMSNorm                  rmsn_24                  1 1 33 36 0=128 1=1.000000e-05 2=1
Permute                  permute_34               1 1 35 37 0=2
RotaryEmbed              rope_0                   3 1 37 7 12 38 0=1
Permute                  permute_35               1 1 36 39 0=2
RotaryEmbed              rope_1                   3 1 39 6 11 40 0=1
Permute                  permute_36               1 1 34 41 0=2
SDPA                     sdpa_50                  3 1 38 40 41 42 5=0
Permute                  permute_37               1 1 42 43 0=2
Reshape                  flatten_48               1 1 43 44 0=3840 1=-1
Gemm                     gemm_4                   1 1 44 45 10=-1 2=0 3=1 4=0 5=1 6=1 7=0 8=3840 9=3840
RMSNorm                  rmsn_25                  1 1 45 46 0=3840 1=1.000000e-05 2=1
BinaryOp                 mul_2                    2 1 21 46 47 0=2
BinaryOp                 add_3                    2 1 1 47 48 0=0
Split                    splitncnn_5              1 2 48 49 50
RMSNorm                  rmsn_26                  1 1 50 51 0=3840 1=1.000000e-05 2=1
BinaryOp                 add_4                    1 1 19 52 0=0 1=1 2=1.0
BinaryOp                 mul_5                    2 1 51 52 53 0=2
Split                    splitncnn_6              1 2 53 54 55
Gemm                     gemm_5                   1 1 55 56 10=-1 2=0 3=1 4=0 5=1 6=1 7=0 8=10240 9=3840
Gemm                     gemm_6                   1 1 54 57 10=-1 2=0 3=1 4=0 5=1 6=1 7=0 8=10240 9=3840
Swish                    silu_16                  1 1 56 58
BinaryOp                 mul_6                    2 1 58 57 59 0=2
Gemm                     gemm_7                   1 1 59 60 10=-1 2=0 3=1 4=0 5=1 6=1 7=0 8=3840 9=10240
RMSNorm                  rmsn_27                  1 1 60 61 0=3840 1=1.000000e-05 2=1
BinaryOp                 mul_7                    2 1 22 61 62 0=2
BinaryOp                 add_8                    2 1 49 62 63 0=0
Split                    splitncnn_7              1 2 63 64 65
Gemm                     gemm_8                   1 1 14 66 10=4 2=0 3=1 4=0 5=1 6=1 7=1 8=15360 9=256
Slice                    chunk_1                  1 4 66 67 68 69 70 -23300=4,-233,-233,-233,-233 1=1
TanH                     tanh_20                  1 1 68 71
TanH                     tanh_21                  1 1 70 72
RMSNorm                  rmsn_28                  1 1 65 73 0=3840 1=1.000000e-05 2=1
BinaryOp                 add_9                    1 1 67 74 0=0 1=1 2=1.0
BinaryOp                 mul_10                   2 1 73 74 75 0=2
Split                    splitncnn_8              1 3 75 76 77 78
Gemm                     gemm_9                   1 1 78 79 10=-1 2=0 3=1 4=0 5=1 6=1 7=0 8=3840 9=3840
Gemm                     gemm_10                  1 1 77 80 10=-1 2=0 3=1 4=0 5=1 6=1 7=0 8=3840 9=3840
Gemm                     gemm_11                  1 1 76 81 10=-1 2=0 3=1 4=0 5=1 6=1 7=0 8=3840 9=3840
Reshape                  unflatten_45             1 1 79 82 0=128 1=30 2=-1
Reshape                  unflatten_46             1 1 80 83 0=128 1=30 2=-1
Reshape                  unflatten_47             1 1 81 84 0=128 1=30 2=-1
RMSNorm                  rmsn_29                  1 1 82 85 0=128 1=1.000000e-05 2=1
RMSNorm                  rmsn_30                  1 1 83 86 0=128 1=1.000000e-05 2=1
Permute                  permute_38               1 1 85 87 0=2
RotaryEmbed              rope_2                   3 1 87 5 10 88 0=1
Permute                  permute_39               1 1 86 89 0=2
RotaryEmbed              rope_3                   3 1 89 4 9 90 0=1
Permute                  permute_40               1 1 84 91 0=2
SDPA                     sdpa_51                  3 1 88 90 91 92 5=0
Permute                  permute_41               1 1 92 93 0=2
Reshape                  flatten_49               1 1 93 94 0=3840 1=-1
Gemm                     gemm_12                  1 1 94 95 10=-1 2=0 3=1 4=0 5=1 6=1 7=0 8=3840 9=3840
RMSNorm                  rmsn_31                  1 1 95 96 0=3840 1=1.000000e-05 2=1
BinaryOp                 mul_11                   2 1 71 96 97 0=2
BinaryOp                 add_12                   2 1 64 97 98 0=0
Split                    splitncnn_9              1 2 98 99 100
RMSNorm                  rmsn_32                  1 1 100 101 0=3840 1=1.000000e-05 2=1
BinaryOp                 add_13                   1 1 69 102 0=0 1=1 2=1.0
BinaryOp                 mul_14                   2 1 101 102 103 0=2
Split                    splitncnn_10             1 2 103 104 105
Gemm                     gemm_13                  1 1 105 106 10=-1 2=0 3=1 4=0 5=1 6=1 7=0 8=10240 9=3840
Gemm                     gemm_14                  1 1 104 107 10=-1 2=0 3=1 4=0 5=1 6=1 7=0 8=10240 9=3840
Swish                    silu_17                  1 1 106 108
BinaryOp                 mul_15                   2 1 108 107 109 0=2
Gemm                     gemm_15                  1 1 109 110 10=-1 2=0 3=1 4=0 5=1 6=1 7=0 8=3840 9=10240
RMSNorm                  rmsn_33                  1 1 110 111 0=3840 1=1.000000e-05 2=1
BinaryOp                 mul_16                   2 1 72 111 112 0=2
BinaryOp                 add_17                   2 1 99 112 out0 0=0
