7767517
1267 1654
Input                    in0                      0 1 in0
Split                    splitncnn_0              1 2 in0 1 2
Input                    in1                      0 1 in1
Split                    splitncnn_1              1 60 in1 4 5 6 7 8 9 10 11 12 13 14 15 16 17 18 19 20 21 22 23 24 25 26 27 28 29 30 31 32 33 34 35 36 37 38 39 40 41 42 43 44 45 46 47 48 49 50 51 52 53 54 55 56 57 58 59 60 61 62 63
Input                    in2                      0 1 in2
Split                    splitncnn_2              1 60 in2 65 66 67 68 69 70 71 72 73 74 75 76 77 78 79 80 81 82 83 84 85 86 87 88 89 90 91 92 93 94 95 96 97 98 99 100 101 102 103 104 105 106 107 108 109 110 111 112 113 114 115 116 117 118 119 120 121 122 123 124
Input                    in3                      0 1 in3
Split                    splitncnn_3              1 30 in3 126 127 128 129 130 131 132 133 134 135 136 137 138 139 140 141 142 143 144 145 146 147 148 149 150 151 152 153 154 155
Gemm                     gemm_0                   1 1 155 156 10=4 2=0 3=1 4=0 5=1 6=1 7=1 8=15360 9=256
Slice                    chunk_0                  1 4 156 157 158 159 160 -23300=4,-233,-233,-233,-233 1=1
TanH                     tanh_270                 1 1 158 161
TanH                     tanh_271                 1 1 160 162
RMSNorm                  rmsn_330                 1 1 2 163 0=3840 1=1.000000e-05 2=1
BinaryOp                 add_0                    1 1 157 164 0=0 1=1 2=1.0
BinaryOp                 mul_1                    2 1 163 164 165 0=2
Split                    splitncnn_4              1 3 165 166 167 168
Gemm                     gemm_1                   1 1 168 169 10=-1 2=0 3=1 4=0 5=1 6=1 7=0 8=3840 9=3840
Gemm                     gemm_2                   1 1 167 170 10=-1 2=0 3=1 4=0 5=1 6=1 7=0 8=3840 9=3840
Gemm                     gemm_3                   1 1 166 171 10=-1 2=0 3=1 4=0 5=1 6=1 7=0 8=3840 9=3840
Reshape                  unflatten_630            1 1 169 172 0=128 1=30 2=-1
Reshape                  unflatten_631            1 1 170 173 0=128 1=30 2=-1
Reshape                  unflatten_632            1 1 171 174 0=128 1=30 2=-1
RMSNorm                  rmsn_331                 1 1 172 175 0=128 1=1.000000e-05 2=1
RMSNorm                  rmsn_332                 1 1 173 176 0=128 1=1.000000e-05 2=1
Permute                  permute_510              1 1 175 177 0=2
RotaryEmbed              rope_0                   3 1 177 63 124 178 0=1
Permute                  permute_511              1 1 176 179 0=2
RotaryEmbed              rope_1                   3 1 179 62 123 180 0=1
Permute                  permute_512              1 1 174 181 0=2
SDPA                     sdpa_750                 3 1 178 180 181 182 5=0
Permute                  permute_513              1 1 182 183 0=2
Reshape                  flatten_720              1 1 183 184 0=3840 1=-1
Gemm                     gemm_4                   1 1 184 185 10=-1 2=0 3=1 4=0 5=1 6=1 7=0 8=3840 9=3840
RMSNorm                  rmsn_333                 1 1 185 186 0=3840 1=1.000000e-05 2=1
BinaryOp                 mul_2                    2 1 161 186 187 0=2
BinaryOp                 add_3                    2 1 1 187 188 0=0
Split                    splitncnn_5              1 2 188 189 190
RMSNorm                  rmsn_334                 1 1 190 191 0=3840 1=1.000000e-05 2=1
BinaryOp                 add_4                    1 1 159 192 0=0 1=1 2=1.0
BinaryOp                 mul_5                    2 1 191 192 193 0=2
Split                    splitncnn_6              1 2 193 194 195
Gemm                     gemm_5                   1 1 195 196 10=-1 2=0 3=1 4=0 5=1 6=1 7=0 8=10240 9=3840
Gemm                     gemm_6                   1 1 194 197 10=-1 2=0 3=1 4=0 5=1 6=1 7=0 8=10240 9=3840
Swish                    silu_240                 1 1 196 198
BinaryOp                 mul_6                    2 1 198 197 199 0=2
Gemm                     gemm_7                   1 1 199 200 10=-1 2=0 3=1 4=0 5=1 6=1 7=0 8=3840 9=10240
RMSNorm                  rmsn_335                 1 1 200 201 0=3840 1=1.000000e-05 2=1
BinaryOp                 mul_7                    2 1 162 201 202 0=2
BinaryOp                 add_8                    2 1 189 202 203 0=0
Split                    splitncnn_7              1 2 203 204 205
Gemm                     gemm_8                   1 1 154 206 10=4 2=0 3=1 4=0 5=1 6=1 7=1 8=15360 9=256
Slice                    chunk_1                  1 4 206 207 208 209 210 -23300=4,-233,-233,-233,-233 1=1
TanH                     tanh_272                 1 1 208 211
TanH                     tanh_273                 1 1 210 212
RMSNorm                  rmsn_336                 1 1 205 213 0=3840 1=1.000000e-05 2=1
BinaryOp                 add_9                    1 1 207 214 0=0 1=1 2=1.0
BinaryOp                 mul_10                   2 1 213 214 215 0=2
Split                    splitncnn_8              1 3 215 216 217 218
Gemm                     gemm_9                   1 1 218 219 10=-1 2=0 3=1 4=0 5=1 6=1 7=0 8=3840 9=3840
Gemm                     gemm_10                  1 1 217 220 10=-1 2=0 3=1 4=0 5=1 6=1 7=0 8=3840 9=3840
Gemm                     gemm_11                  1 1 216 221 10=-1 2=0 3=1 4=0 5=1 6=1 7=0 8=3840 9=3840
Reshape                  unflatten_633            1 1 219 222 0=128 1=30 2=-1
Reshape                  unflatten_634            1 1 220 223 0=128 1=30 2=-1
Reshape                  unflatten_635            1 1 221 224 0=128 1=30 2=-1
RMSNorm                  rmsn_337                 1 1 222 225 0=128 1=1.000000e-05 2=1
RMSNorm                  rmsn_338                 1 1 223 226 0=128 1=1.000000e-05 2=1
Permute                  permute_514              1 1 225 227 0=2
RotaryEmbed              rope_2                   3 1 227 61 122 228 0=1
Permute                  permute_515              1 1 226 229 0=2
RotaryEmbed              rope_3                   3 1 229 60 121 230 0=1
Permute                  permute_516              1 1 224 231 0=2
SDPA                     sdpa_751                 3 1 228 230 231 232 5=0
Permute                  permute_517              1 1 232 233 0=2
Reshape                  flatten_721              1 1 233 234 0=3840 1=-1
Gemm                     gemm_12                  1 1 234 235 10=-1 2=0 3=1 4=0 5=1 6=1 7=0 8=3840 9=3840
RMSNorm                  rmsn_339                 1 1 235 236 0=3840 1=1.000000e-05 2=1
BinaryOp                 mul_11                   2 1 211 236 237 0=2
BinaryOp                 add_12                   2 1 204 237 238 0=0
Split                    splitncnn_9              1 2 238 239 240
RMSNorm                  rmsn_340                 1 1 240 241 0=3840 1=1.000000e-05 2=1
BinaryOp                 add_13                   1 1 209 242 0=0 1=1 2=1.0
BinaryOp                 mul_14                   2 1 241 242 243 0=2
Split                    splitncnn_10             1 2 243 244 245
Gemm                     gemm_13                  1 1 245 246 10=-1 2=0 3=1 4=0 5=1 6=1 7=0 8=10240 9=3840
Gemm                     gemm_14                  1 1 244 247 10=-1 2=0 3=1 4=0 5=1 6=1 7=0 8=10240 9=3840
Swish                    silu_241                 1 1 246 248
BinaryOp                 mul_15                   2 1 248 247 249 0=2
Gemm                     gemm_15                  1 1 249 250 10=-1 2=0 3=1 4=0 5=1 6=1 7=0 8=3840 9=10240
RMSNorm                  rmsn_341                 1 1 250 251 0=3840 1=1.000000e-05 2=1
BinaryOp                 mul_16                   2 1 212 251 252 0=2
BinaryOp                 add_17                   2 1 239 252 253 0=0
Split                    splitncnn_11             1 2 253 254 255
Gemm                     gemm_16                  1 1 153 256 10=4 2=0 3=1 4=0 5=1 6=1 7=1 8=15360 9=256
Slice                    chunk_2                  1 4 256 257 258 259 260 -23300=4,-233,-233,-233,-233 1=1
TanH                     tanh_274                 1 1 258 261
TanH                     tanh_275                 1 1 260 262
RMSNorm                  rmsn_342                 1 1 255 263 0=3840 1=1.000000e-05 2=1
BinaryOp                 add_18                   1 1 257 264 0=0 1=1 2=1.0
BinaryOp                 mul_19                   2 1 263 264 265 0=2
Split                    splitncnn_12             1 3 265 266 267 268
Gemm                     gemm_17                  1 1 268 269 10=-1 2=0 3=1 4=0 5=1 6=1 7=0 8=3840 9=3840
Gemm                     gemm_18                  1 1 267 270 10=-1 2=0 3=1 4=0 5=1 6=1 7=0 8=3840 9=3840
Gemm                     gemm_19                  1 1 266 271 10=-1 2=0 3=1 4=0 5=1 6=1 7=0 8=3840 9=3840
Reshape                  unflatten_636            1 1 269 272 0=128 1=30 2=-1
Reshape                  unflatten_637            1 1 270 273 0=128 1=30 2=-1
Reshape                  unflatten_638            1 1 271 274 0=128 1=30 2=-1
RMSNorm                  rmsn_343                 1 1 272 275 0=128 1=1.000000e-05 2=1
RMSNorm                  rmsn_344                 1 1 273 276 0=128 1=1.000000e-05 2=1
Permute                  permute_518              1 1 275 277 0=2
RotaryEmbed              rope_4                   3 1 277 59 120 278 0=1
Permute                  permute_519              1 1 276 279 0=2
RotaryEmbed              rope_5                   3 1 279 58 119 280 0=1
Permute                  permute_520              1 1 274 281 0=2
SDPA                     sdpa_752                 3 1 278 280 281 282 5=0
Permute                  permute_521              1 1 282 283 0=2
Reshape                  flatten_722              1 1 283 284 0=3840 1=-1
Gemm                     gemm_20                  1 1 284 285 10=-1 2=0 3=1 4=0 5=1 6=1 7=0 8=3840 9=3840
RMSNorm                  rmsn_345                 1 1 285 286 0=3840 1=1.000000e-05 2=1
BinaryOp                 mul_20                   2 1 261 286 287 0=2
BinaryOp                 add_21                   2 1 254 287 288 0=0
Split                    splitncnn_13             1 2 288 289 290
RMSNorm                  rmsn_346                 1 1 290 291 0=3840 1=1.000000e-05 2=1
BinaryOp                 add_22                   1 1 259 292 0=0 1=1 2=1.0
BinaryOp                 mul_23                   2 1 291 292 293 0=2
Split                    splitncnn_14             1 2 293 294 295
Gemm                     gemm_21                  1 1 295 296 10=-1 2=0 3=1 4=0 5=1 6=1 7=0 8=10240 9=3840
Gemm                     gemm_22                  1 1 294 297 10=-1 2=0 3=1 4=0 5=1 6=1 7=0 8=10240 9=3840
Swish                    silu_242                 1 1 296 298
BinaryOp                 mul_24                   2 1 298 297 299 0=2
Gemm                     gemm_23                  1 1 299 300 10=-1 2=0 3=1 4=0 5=1 6=1 7=0 8=3840 9=10240
RMSNorm                  rmsn_347                 1 1 300 301 0=3840 1=1.000000e-05 2=1
BinaryOp                 mul_25                   2 1 262 301 302 0=2
BinaryOp                 add_26                   2 1 289 302 303 0=0
Split                    splitncnn_15             1 2 303 304 305
Gemm                     gemm_24                  1 1 152 306 10=4 2=0 3=1 4=0 5=1 6=1 7=1 8=15360 9=256
Slice                    chunk_3                  1 4 306 307 308 309 310 -23300=4,-233,-233,-233,-233 1=1
TanH                     tanh_276                 1 1 308 311
TanH                     tanh_277                 1 1 310 312
RMSNorm                  rmsn_348                 1 1 305 313 0=3840 1=1.000000e-05 2=1
BinaryOp                 add_27                   1 1 307 314 0=0 1=1 2=1.0
BinaryOp                 mul_28                   2 1 313 314 315 0=2
Split                    splitncnn_16             1 3 315 316 317 318
Gemm                     gemm_25                  1 1 318 319 10=-1 2=0 3=1 4=0 5=1 6=1 7=0 8=3840 9=3840
Gemm                     gemm_26                  1 1 317 320 10=-1 2=0 3=1 4=0 5=1 6=1 7=0 8=3840 9=3840
Gemm                     gemm_27                  1 1 316 321 10=-1 2=0 3=1 4=0 5=1 6=1 7=0 8=3840 9=3840
Reshape                  unflatten_639            1 1 319 322 0=128 1=30 2=-1
Reshape                  unflatten_640            1 1 320 323 0=128 1=30 2=-1
Reshape                  unflatten_641            1 1 321 324 0=128 1=30 2=-1
RMSNorm                  rmsn_349                 1 1 322 325 0=128 1=1.000000e-05 2=1
RMSNorm                  rmsn_350                 1 1 323 326 0=128 1=1.000000e-05 2=1
Permute                  permute_522              1 1 325 327 0=2
RotaryEmbed              rope_6                   3 1 327 57 118 328 0=1
Permute                  permute_523              1 1 326 329 0=2
RotaryEmbed              rope_7                   3 1 329 56 117 330 0=1
Permute                  permute_524              1 1 324 331 0=2
SDPA                     sdpa_753                 3 1 328 330 331 332 5=0
Permute                  permute_525              1 1 332 333 0=2
Reshape                  flatten_723              1 1 333 334 0=3840 1=-1
Gemm                     gemm_28                  1 1 334 335 10=-1 2=0 3=1 4=0 5=1 6=1 7=0 8=3840 9=3840
RMSNorm                  rmsn_351                 1 1 335 336 0=3840 1=1.000000e-05 2=1
BinaryOp                 mul_29                   2 1 311 336 337 0=2
BinaryOp                 add_30                   2 1 304 337 338 0=0
Split                    splitncnn_17             1 2 338 339 340
RMSNorm                  rmsn_352                 1 1 340 341 0=3840 1=1.000000e-05 2=1
BinaryOp                 add_31                   1 1 309 342 0=0 1=1 2=1.0
BinaryOp                 mul_32                   2 1 341 342 343 0=2
Split                    splitncnn_18             1 2 343 344 345
Gemm                     gemm_29                  1 1 345 346 10=-1 2=0 3=1 4=0 5=1 6=1 7=0 8=10240 9=3840
Gemm                     gemm_30                  1 1 344 347 10=-1 2=0 3=1 4=0 5=1 6=1 7=0 8=10240 9=3840
Swish                    silu_243                 1 1 346 348
BinaryOp                 mul_33                   2 1 348 347 349 0=2
Gemm                     gemm_31                  1 1 349 350 10=-1 2=0 3=1 4=0 5=1 6=1 7=0 8=3840 9=10240
RMSNorm                  rmsn_353                 1 1 350 351 0=3840 1=1.000000e-05 2=1
BinaryOp                 mul_34                   2 1 312 351 352 0=2
BinaryOp                 add_35                   2 1 339 352 353 0=0
Split                    splitncnn_19             1 2 353 354 355
Gemm                     gemm_32                  1 1 151 356 10=4 2=0 3=1 4=0 5=1 6=1 7=1 8=15360 9=256
Slice                    chunk_4                  1 4 356 357 358 359 360 -23300=4,-233,-233,-233,-233 1=1
TanH                     tanh_278                 1 1 358 361
TanH                     tanh_279                 1 1 360 362
RMSNorm                  rmsn_354                 1 1 355 363 0=3840 1=1.000000e-05 2=1
BinaryOp                 add_36                   1 1 357 364 0=0 1=1 2=1.0
BinaryOp                 mul_37                   2 1 363 364 365 0=2
Split                    splitncnn_20             1 3 365 366 367 368
Gemm                     gemm_33                  1 1 368 369 10=-1 2=0 3=1 4=0 5=1 6=1 7=0 8=3840 9=3840
Gemm                     gemm_34                  1 1 367 370 10=-1 2=0 3=1 4=0 5=1 6=1 7=0 8=3840 9=3840
Gemm                     gemm_35                  1 1 366 371 10=-1 2=0 3=1 4=0 5=1 6=1 7=0 8=3840 9=3840
Reshape                  unflatten_642            1 1 369 372 0=128 1=30 2=-1
Reshape                  unflatten_643            1 1 370 373 0=128 1=30 2=-1
Reshape                  unflatten_644            1 1 371 374 0=128 1=30 2=-1
RMSNorm                  rmsn_355                 1 1 372 375 0=128 1=1.000000e-05 2=1
RMSNorm                  rmsn_356                 1 1 373 376 0=128 1=1.000000e-05 2=1
Permute                  permute_526              1 1 375 377 0=2
RotaryEmbed              rope_8                   3 1 377 55 116 378 0=1
Permute                  permute_527              1 1 376 379 0=2
RotaryEmbed              rope_9                   3 1 379 54 115 380 0=1
Permute                  permute_528              1 1 374 381 0=2
SDPA                     sdpa_754                 3 1 378 380 381 382 5=0
Permute                  permute_529              1 1 382 383 0=2
Reshape                  flatten_724              1 1 383 384 0=3840 1=-1
Gemm                     gemm_36                  1 1 384 385 10=-1 2=0 3=1 4=0 5=1 6=1 7=0 8=3840 9=3840
RMSNorm                  rmsn_357                 1 1 385 386 0=3840 1=1.000000e-05 2=1
BinaryOp                 mul_38                   2 1 361 386 387 0=2
BinaryOp                 add_39                   2 1 354 387 388 0=0
Split                    splitncnn_21             1 2 388 389 390
RMSNorm                  rmsn_358                 1 1 390 391 0=3840 1=1.000000e-05 2=1
BinaryOp                 add_40                   1 1 359 392 0=0 1=1 2=1.0
BinaryOp                 mul_41                   2 1 391 392 393 0=2
Split                    splitncnn_22             1 2 393 394 395
Gemm                     gemm_37                  1 1 395 396 10=-1 2=0 3=1 4=0 5=1 6=1 7=0 8=10240 9=3840
Gemm                     gemm_38                  1 1 394 397 10=-1 2=0 3=1 4=0 5=1 6=1 7=0 8=10240 9=3840
Swish                    silu_244                 1 1 396 398
BinaryOp                 mul_42                   2 1 398 397 399 0=2
Gemm                     gemm_39                  1 1 399 400 10=-1 2=0 3=1 4=0 5=1 6=1 7=0 8=3840 9=10240
RMSNorm                  rmsn_359                 1 1 400 401 0=3840 1=1.000000e-05 2=1
BinaryOp                 mul_43                   2 1 362 401 402 0=2
BinaryOp                 add_44                   2 1 389 402 403 0=0
Split                    splitncnn_23             1 2 403 404 405
Gemm                     gemm_40                  1 1 150 406 10=4 2=0 3=1 4=0 5=1 6=1 7=1 8=15360 9=256
Slice                    chunk_5                  1 4 406 407 408 409 410 -23300=4,-233,-233,-233,-233 1=1
TanH                     tanh_280                 1 1 408 411
TanH                     tanh_281                 1 1 410 412
RMSNorm                  rmsn_360                 1 1 405 413 0=3840 1=1.000000e-05 2=1
BinaryOp                 add_45                   1 1 407 414 0=0 1=1 2=1.0
BinaryOp                 mul_46                   2 1 413 414 415 0=2
Split                    splitncnn_24             1 3 415 416 417 418
Gemm                     gemm_41                  1 1 418 419 10=-1 2=0 3=1 4=0 5=1 6=1 7=0 8=3840 9=3840
Gemm                     gemm_42                  1 1 417 420 10=-1 2=0 3=1 4=0 5=1 6=1 7=0 8=3840 9=3840
Gemm                     gemm_43                  1 1 416 421 10=-1 2=0 3=1 4=0 5=1 6=1 7=0 8=3840 9=3840
Reshape                  unflatten_645            1 1 419 422 0=128 1=30 2=-1
Reshape                  unflatten_646            1 1 420 423 0=128 1=30 2=-1
Reshape                  unflatten_647            1 1 421 424 0=128 1=30 2=-1
RMSNorm                  rmsn_361                 1 1 422 425 0=128 1=1.000000e-05 2=1
RMSNorm                  rmsn_362                 1 1 423 426 0=128 1=1.000000e-05 2=1
Permute                  permute_530              1 1 425 427 0=2
RotaryEmbed              rope_10                  3 1 427 53 114 428 0=1
Permute                  permute_531              1 1 426 429 0=2
RotaryEmbed              rope_11                  3 1 429 52 113 430 0=1
Permute                  permute_532              1 1 424 431 0=2
SDPA                     sdpa_755                 3 1 428 430 431 432 5=0
Permute                  permute_533              1 1 432 433 0=2
Reshape                  flatten_725              1 1 433 434 0=3840 1=-1
Gemm                     gemm_44                  1 1 434 435 10=-1 2=0 3=1 4=0 5=1 6=1 7=0 8=3840 9=3840
RMSNorm                  rmsn_363                 1 1 435 436 0=3840 1=1.000000e-05 2=1
BinaryOp                 mul_47                   2 1 411 436 437 0=2
BinaryOp                 add_48                   2 1 404 437 438 0=0
Split                    splitncnn_25             1 2 438 439 440
RMSNorm                  rmsn_364                 1 1 440 441 0=3840 1=1.000000e-05 2=1
BinaryOp                 add_49                   1 1 409 442 0=0 1=1 2=1.0
BinaryOp                 mul_50                   2 1 441 442 443 0=2
Split                    splitncnn_26             1 2 443 444 445
Gemm                     gemm_45                  1 1 445 446 10=-1 2=0 3=1 4=0 5=1 6=1 7=0 8=10240 9=3840
Gemm                     gemm_46                  1 1 444 447 10=-1 2=0 3=1 4=0 5=1 6=1 7=0 8=10240 9=3840
Swish                    silu_245                 1 1 446 448
BinaryOp                 mul_51                   2 1 448 447 449 0=2
Gemm                     gemm_47                  1 1 449 450 10=-1 2=0 3=1 4=0 5=1 6=1 7=0 8=3840 9=10240
RMSNorm                  rmsn_365                 1 1 450 451 0=3840 1=1.000000e-05 2=1
BinaryOp                 mul_52                   2 1 412 451 452 0=2
BinaryOp                 add_53                   2 1 439 452 453 0=0
Split                    splitncnn_27             1 2 453 454 455
Gemm                     gemm_48                  1 1 149 456 10=4 2=0 3=1 4=0 5=1 6=1 7=1 8=15360 9=256
Slice                    chunk_6                  1 4 456 457 458 459 460 -23300=4,-233,-233,-233,-233 1=1
TanH                     tanh_282                 1 1 458 461
TanH                     tanh_283                 1 1 460 462
RMSNorm                  rmsn_366                 1 1 455 463 0=3840 1=1.000000e-05 2=1
BinaryOp                 add_54                   1 1 457 464 0=0 1=1 2=1.0
BinaryOp                 mul_55                   2 1 463 464 465 0=2
Split                    splitncnn_28             1 3 465 466 467 468
Gemm                     gemm_49                  1 1 468 469 10=-1 2=0 3=1 4=0 5=1 6=1 7=0 8=3840 9=3840
Gemm                     gemm_50                  1 1 467 470 10=-1 2=0 3=1 4=0 5=1 6=1 7=0 8=3840 9=3840
Gemm                     gemm_51                  1 1 466 471 10=-1 2=0 3=1 4=0 5=1 6=1 7=0 8=3840 9=3840
Reshape                  unflatten_648            1 1 469 472 0=128 1=30 2=-1
Reshape                  unflatten_649            1 1 470 473 0=128 1=30 2=-1
Reshape                  unflatten_650            1 1 471 474 0=128 1=30 2=-1
RMSNorm                  rmsn_367                 1 1 472 475 0=128 1=1.000000e-05 2=1
RMSNorm                  rmsn_368                 1 1 473 476 0=128 1=1.000000e-05 2=1
Permute                  permute_534              1 1 475 477 0=2
RotaryEmbed              rope_12                  3 1 477 51 112 478 0=1
Permute                  permute_535              1 1 476 479 0=2
RotaryEmbed              rope_13                  3 1 479 50 111 480 0=1
Permute                  permute_536              1 1 474 481 0=2
SDPA                     sdpa_756                 3 1 478 480 481 482 5=0
Permute                  permute_537              1 1 482 483 0=2
Reshape                  flatten_726              1 1 483 484 0=3840 1=-1
Gemm                     gemm_52                  1 1 484 485 10=-1 2=0 3=1 4=0 5=1 6=1 7=0 8=3840 9=3840
RMSNorm                  rmsn_369                 1 1 485 486 0=3840 1=1.000000e-05 2=1
BinaryOp                 mul_56                   2 1 461 486 487 0=2
BinaryOp                 add_57                   2 1 454 487 488 0=0
Split                    splitncnn_29             1 2 488 489 490
RMSNorm                  rmsn_370                 1 1 490 491 0=3840 1=1.000000e-05 2=1
BinaryOp                 add_58                   1 1 459 492 0=0 1=1 2=1.0
BinaryOp                 mul_59                   2 1 491 492 493 0=2
Split                    splitncnn_30             1 2 493 494 495
Gemm                     gemm_53                  1 1 495 496 10=-1 2=0 3=1 4=0 5=1 6=1 7=0 8=10240 9=3840
Gemm                     gemm_54                  1 1 494 497 10=-1 2=0 3=1 4=0 5=1 6=1 7=0 8=10240 9=3840
Swish                    silu_246                 1 1 496 498
BinaryOp                 mul_60                   2 1 498 497 499 0=2
Gemm                     gemm_55                  1 1 499 500 10=-1 2=0 3=1 4=0 5=1 6=1 7=0 8=3840 9=10240
RMSNorm                  rmsn_371                 1 1 500 501 0=3840 1=1.000000e-05 2=1
BinaryOp                 mul_61                   2 1 462 501 502 0=2
BinaryOp                 add_62                   2 1 489 502 503 0=0
Split                    splitncnn_31             1 2 503 504 505
Gemm                     gemm_56                  1 1 148 506 10=4 2=0 3=1 4=0 5=1 6=1 7=1 8=15360 9=256
Slice                    chunk_7                  1 4 506 507 508 509 510 -23300=4,-233,-233,-233,-233 1=1
TanH                     tanh_284                 1 1 508 511
TanH                     tanh_285                 1 1 510 512
RMSNorm                  rmsn_372                 1 1 505 513 0=3840 1=1.000000e-05 2=1
BinaryOp                 add_63                   1 1 507 514 0=0 1=1 2=1.0
BinaryOp                 mul_64                   2 1 513 514 515 0=2
Split                    splitncnn_32             1 3 515 516 517 518
Gemm                     gemm_57                  1 1 518 519 10=-1 2=0 3=1 4=0 5=1 6=1 7=0 8=3840 9=3840
Gemm                     gemm_58                  1 1 517 520 10=-1 2=0 3=1 4=0 5=1 6=1 7=0 8=3840 9=3840
Gemm                     gemm_59                  1 1 516 521 10=-1 2=0 3=1 4=0 5=1 6=1 7=0 8=3840 9=3840
Reshape                  unflatten_651            1 1 519 522 0=128 1=30 2=-1
Reshape                  unflatten_652            1 1 520 523 0=128 1=30 2=-1
Reshape                  unflatten_653            1 1 521 524 0=128 1=30 2=-1
RMSNorm                  rmsn_373                 1 1 522 525 0=128 1=1.000000e-05 2=1
RMSNorm                  rmsn_374                 1 1 523 526 0=128 1=1.000000e-05 2=1
Permute                  permute_538              1 1 525 527 0=2
RotaryEmbed              rope_14                  3 1 527 49 110 528 0=1
Permute                  permute_539              1 1 526 529 0=2
RotaryEmbed              rope_15                  3 1 529 48 109 530 0=1
Permute                  permute_540              1 1 524 531 0=2
SDPA                     sdpa_757                 3 1 528 530 531 532 5=0
Permute                  permute_541              1 1 532 533 0=2
Reshape                  flatten_727              1 1 533 534 0=3840 1=-1
Gemm                     gemm_60                  1 1 534 535 10=-1 2=0 3=1 4=0 5=1 6=1 7=0 8=3840 9=3840
RMSNorm                  rmsn_375                 1 1 535 536 0=3840 1=1.000000e-05 2=1
BinaryOp                 mul_65                   2 1 511 536 537 0=2
BinaryOp                 add_66                   2 1 504 537 538 0=0
Split                    splitncnn_33             1 2 538 539 540
RMSNorm                  rmsn_376                 1 1 540 541 0=3840 1=1.000000e-05 2=1
BinaryOp                 add_67                   1 1 509 542 0=0 1=1 2=1.0
BinaryOp                 mul_68                   2 1 541 542 543 0=2
Split                    splitncnn_34             1 2 543 544 545
Gemm                     gemm_61                  1 1 545 546 10=-1 2=0 3=1 4=0 5=1 6=1 7=0 8=10240 9=3840
Gemm                     gemm_62                  1 1 544 547 10=-1 2=0 3=1 4=0 5=1 6=1 7=0 8=10240 9=3840
Swish                    silu_247                 1 1 546 548
BinaryOp                 mul_69                   2 1 548 547 549 0=2
Gemm                     gemm_63                  1 1 549 550 10=-1 2=0 3=1 4=0 5=1 6=1 7=0 8=3840 9=10240
RMSNorm                  rmsn_377                 1 1 550 551 0=3840 1=1.000000e-05 2=1
BinaryOp                 mul_70                   2 1 512 551 552 0=2
BinaryOp                 add_71                   2 1 539 552 553 0=0
Split                    splitncnn_35             1 2 553 554 555
Gemm                     gemm_64                  1 1 147 556 10=4 2=0 3=1 4=0 5=1 6=1 7=1 8=15360 9=256
Slice                    chunk_8                  1 4 556 557 558 559 560 -23300=4,-233,-233,-233,-233 1=1
TanH                     tanh_286                 1 1 558 561
TanH                     tanh_287                 1 1 560 562
RMSNorm                  rmsn_378                 1 1 555 563 0=3840 1=1.000000e-05 2=1
BinaryOp                 add_72                   1 1 557 564 0=0 1=1 2=1.0
BinaryOp                 mul_73                   2 1 563 564 565 0=2
Split                    splitncnn_36             1 3 565 566 567 568
Gemm                     gemm_65                  1 1 568 569 10=-1 2=0 3=1 4=0 5=1 6=1 7=0 8=3840 9=3840
Gemm                     gemm_66                  1 1 567 570 10=-1 2=0 3=1 4=0 5=1 6=1 7=0 8=3840 9=3840
Gemm                     gemm_67                  1 1 566 571 10=-1 2=0 3=1 4=0 5=1 6=1 7=0 8=3840 9=3840
Reshape                  unflatten_654            1 1 569 572 0=128 1=30 2=-1
Reshape                  unflatten_655            1 1 570 573 0=128 1=30 2=-1
Reshape                  unflatten_656            1 1 571 574 0=128 1=30 2=-1
RMSNorm                  rmsn_379                 1 1 572 575 0=128 1=1.000000e-05 2=1
RMSNorm                  rmsn_380                 1 1 573 576 0=128 1=1.000000e-05 2=1
Permute                  permute_542              1 1 575 577 0=2
RotaryEmbed              rope_16                  3 1 577 47 108 578 0=1
Permute                  permute_543              1 1 576 579 0=2
RotaryEmbed              rope_17                  3 1 579 46 107 580 0=1
Permute                  permute_544              1 1 574 581 0=2
SDPA                     sdpa_758                 3 1 578 580 581 582 5=0
Permute                  permute_545              1 1 582 583 0=2
Reshape                  flatten_728              1 1 583 584 0=3840 1=-1
Gemm                     gemm_68                  1 1 584 585 10=-1 2=0 3=1 4=0 5=1 6=1 7=0 8=3840 9=3840
RMSNorm                  rmsn_381                 1 1 585 586 0=3840 1=1.000000e-05 2=1
BinaryOp                 mul_74                   2 1 561 586 587 0=2
BinaryOp                 add_75                   2 1 554 587 588 0=0
Split                    splitncnn_37             1 2 588 589 590
RMSNorm                  rmsn_382                 1 1 590 591 0=3840 1=1.000000e-05 2=1
BinaryOp                 add_76                   1 1 559 592 0=0 1=1 2=1.0
BinaryOp                 mul_77                   2 1 591 592 593 0=2
Split                    splitncnn_38             1 2 593 594 595
Gemm                     gemm_69                  1 1 595 596 10=-1 2=0 3=1 4=0 5=1 6=1 7=0 8=10240 9=3840
Gemm                     gemm_70                  1 1 594 597 10=-1 2=0 3=1 4=0 5=1 6=1 7=0 8=10240 9=3840
Swish                    silu_248                 1 1 596 598
BinaryOp                 mul_78                   2 1 598 597 599 0=2
Gemm                     gemm_71                  1 1 599 600 10=-1 2=0 3=1 4=0 5=1 6=1 7=0 8=3840 9=10240
RMSNorm                  rmsn_383                 1 1 600 601 0=3840 1=1.000000e-05 2=1
BinaryOp                 mul_79                   2 1 562 601 602 0=2
BinaryOp                 add_80                   2 1 589 602 603 0=0
Split                    splitncnn_39             1 2 603 604 605
Gemm                     gemm_72                  1 1 146 606 10=4 2=0 3=1 4=0 5=1 6=1 7=1 8=15360 9=256
Slice                    chunk_9                  1 4 606 607 608 609 610 -23300=4,-233,-233,-233,-233 1=1
TanH                     tanh_288                 1 1 608 611
TanH                     tanh_289                 1 1 610 612
RMSNorm                  rmsn_384                 1 1 605 613 0=3840 1=1.000000e-05 2=1
BinaryOp                 add_81                   1 1 607 614 0=0 1=1 2=1.0
BinaryOp                 mul_82                   2 1 613 614 615 0=2
Split                    splitncnn_40             1 3 615 616 617 618
Gemm                     gemm_73                  1 1 618 619 10=-1 2=0 3=1 4=0 5=1 6=1 7=0 8=3840 9=3840
Gemm                     gemm_74                  1 1 617 620 10=-1 2=0 3=1 4=0 5=1 6=1 7=0 8=3840 9=3840
Gemm                     gemm_75                  1 1 616 621 10=-1 2=0 3=1 4=0 5=1 6=1 7=0 8=3840 9=3840
Reshape                  unflatten_657            1 1 619 622 0=128 1=30 2=-1
Reshape                  unflatten_658            1 1 620 623 0=128 1=30 2=-1
Reshape                  unflatten_659            1 1 621 624 0=128 1=30 2=-1
RMSNorm                  rmsn_385                 1 1 622 625 0=128 1=1.000000e-05 2=1
RMSNorm                  rmsn_386                 1 1 623 626 0=128 1=1.000000e-05 2=1
Permute                  permute_546              1 1 625 627 0=2
RotaryEmbed              rope_18                  3 1 627 45 106 628 0=1
Permute                  permute_547              1 1 626 629 0=2
RotaryEmbed              rope_19                  3 1 629 44 105 630 0=1
Permute                  permute_548              1 1 624 631 0=2
SDPA                     sdpa_759                 3 1 628 630 631 632 5=0
Permute                  permute_549              1 1 632 633 0=2
Reshape                  flatten_729              1 1 633 634 0=3840 1=-1
Gemm                     gemm_76                  1 1 634 635 10=-1 2=0 3=1 4=0 5=1 6=1 7=0 8=3840 9=3840
RMSNorm                  rmsn_387                 1 1 635 636 0=3840 1=1.000000e-05 2=1
BinaryOp                 mul_83                   2 1 611 636 637 0=2
BinaryOp                 add_84                   2 1 604 637 638 0=0
Split                    splitncnn_41             1 2 638 639 640
RMSNorm                  rmsn_388                 1 1 640 641 0=3840 1=1.000000e-05 2=1
BinaryOp                 add_85                   1 1 609 642 0=0 1=1 2=1.0
BinaryOp                 mul_86                   2 1 641 642 643 0=2
Split                    splitncnn_42             1 2 643 644 645
Gemm                     gemm_77                  1 1 645 646 10=-1 2=0 3=1 4=0 5=1 6=1 7=0 8=10240 9=3840
Gemm                     gemm_78                  1 1 644 647 10=-1 2=0 3=1 4=0 5=1 6=1 7=0 8=10240 9=3840
Swish                    silu_249                 1 1 646 648
BinaryOp                 mul_87                   2 1 648 647 649 0=2
Gemm                     gemm_79                  1 1 649 650 10=-1 2=0 3=1 4=0 5=1 6=1 7=0 8=3840 9=10240
RMSNorm                  rmsn_389                 1 1 650 651 0=3840 1=1.000000e-05 2=1
BinaryOp                 mul_88                   2 1 612 651 652 0=2
BinaryOp                 add_89                   2 1 639 652 653 0=0
Split                    splitncnn_43             1 2 653 654 655
Gemm                     gemm_80                  1 1 145 656 10=4 2=0 3=1 4=0 5=1 6=1 7=1 8=15360 9=256
Slice                    chunk_10                 1 4 656 657 658 659 660 -23300=4,-233,-233,-233,-233 1=1
TanH                     tanh_290                 1 1 658 661
TanH                     tanh_291                 1 1 660 662
RMSNorm                  rmsn_390                 1 1 655 663 0=3840 1=1.000000e-05 2=1
BinaryOp                 add_90                   1 1 657 664 0=0 1=1 2=1.0
BinaryOp                 mul_91                   2 1 663 664 665 0=2
Split                    splitncnn_44             1 3 665 666 667 668
Gemm                     gemm_81                  1 1 668 669 10=-1 2=0 3=1 4=0 5=1 6=1 7=0 8=3840 9=3840
Gemm                     gemm_82                  1 1 667 670 10=-1 2=0 3=1 4=0 5=1 6=1 7=0 8=3840 9=3840
Gemm                     gemm_83                  1 1 666 671 10=-1 2=0 3=1 4=0 5=1 6=1 7=0 8=3840 9=3840
Reshape                  unflatten_660            1 1 669 672 0=128 1=30 2=-1
Reshape                  unflatten_661            1 1 670 673 0=128 1=30 2=-1
Reshape                  unflatten_662            1 1 671 674 0=128 1=30 2=-1
RMSNorm                  rmsn_391                 1 1 672 675 0=128 1=1.000000e-05 2=1
RMSNorm                  rmsn_392                 1 1 673 676 0=128 1=1.000000e-05 2=1
Permute                  permute_550              1 1 675 677 0=2
RotaryEmbed              rope_20                  3 1 677 43 104 678 0=1
Permute                  permute_551              1 1 676 679 0=2
RotaryEmbed              rope_21                  3 1 679 42 103 680 0=1
Permute                  permute_552              1 1 674 681 0=2
SDPA                     sdpa_760                 3 1 678 680 681 682 5=0
Permute                  permute_553              1 1 682 683 0=2
Reshape                  flatten_730              1 1 683 684 0=3840 1=-1
Gemm                     gemm_84                  1 1 684 685 10=-1 2=0 3=1 4=0 5=1 6=1 7=0 8=3840 9=3840
RMSNorm                  rmsn_393                 1 1 685 686 0=3840 1=1.000000e-05 2=1
BinaryOp                 mul_92                   2 1 661 686 687 0=2
BinaryOp                 add_93                   2 1 654 687 688 0=0
Split                    splitncnn_45             1 2 688 689 690
RMSNorm                  rmsn_394                 1 1 690 691 0=3840 1=1.000000e-05 2=1
BinaryOp                 add_94                   1 1 659 692 0=0 1=1 2=1.0
BinaryOp                 mul_95                   2 1 691 692 693 0=2
Split                    splitncnn_46             1 2 693 694 695
Gemm                     gemm_85                  1 1 695 696 10=-1 2=0 3=1 4=0 5=1 6=1 7=0 8=10240 9=3840
Gemm                     gemm_86                  1 1 694 697 10=-1 2=0 3=1 4=0 5=1 6=1 7=0 8=10240 9=3840
Swish                    silu_250                 1 1 696 698
BinaryOp                 mul_96                   2 1 698 697 699 0=2
Gemm                     gemm_87                  1 1 699 700 10=-1 2=0 3=1 4=0 5=1 6=1 7=0 8=3840 9=10240
RMSNorm                  rmsn_395                 1 1 700 701 0=3840 1=1.000000e-05 2=1
BinaryOp                 mul_97                   2 1 662 701 702 0=2
BinaryOp                 add_98                   2 1 689 702 703 0=0
Split                    splitncnn_47             1 2 703 704 705
Gemm                     gemm_88                  1 1 144 706 10=4 2=0 3=1 4=0 5=1 6=1 7=1 8=15360 9=256
Slice                    chunk_11                 1 4 706 707 708 709 710 -23300=4,-233,-233,-233,-233 1=1
TanH                     tanh_292                 1 1 708 711
TanH                     tanh_293                 1 1 710 712
RMSNorm                  rmsn_396                 1 1 705 713 0=3840 1=1.000000e-05 2=1
BinaryOp                 add_99                   1 1 707 714 0=0 1=1 2=1.0
BinaryOp                 mul_100                  2 1 713 714 715 0=2
Split                    splitncnn_48             1 3 715 716 717 718
Gemm                     gemm_89                  1 1 718 719 10=-1 2=0 3=1 4=0 5=1 6=1 7=0 8=3840 9=3840
Gemm                     gemm_90                  1 1 717 720 10=-1 2=0 3=1 4=0 5=1 6=1 7=0 8=3840 9=3840
Gemm                     gemm_91                  1 1 716 721 10=-1 2=0 3=1 4=0 5=1 6=1 7=0 8=3840 9=3840
Reshape                  unflatten_663            1 1 719 722 0=128 1=30 2=-1
Reshape                  unflatten_664            1 1 720 723 0=128 1=30 2=-1
Reshape                  unflatten_665            1 1 721 724 0=128 1=30 2=-1
RMSNorm                  rmsn_397                 1 1 722 725 0=128 1=1.000000e-05 2=1
RMSNorm                  rmsn_398                 1 1 723 726 0=128 1=1.000000e-05 2=1
Permute                  permute_554              1 1 725 727 0=2
RotaryEmbed              rope_22                  3 1 727 41 102 728 0=1
Permute                  permute_555              1 1 726 729 0=2
RotaryEmbed              rope_23                  3 1 729 40 101 730 0=1
Permute                  permute_556              1 1 724 731 0=2
SDPA                     sdpa_761                 3 1 728 730 731 732 5=0
Permute                  permute_557              1 1 732 733 0=2
Reshape                  flatten_731              1 1 733 734 0=3840 1=-1
Gemm                     gemm_92                  1 1 734 735 10=-1 2=0 3=1 4=0 5=1 6=1 7=0 8=3840 9=3840
RMSNorm                  rmsn_399                 1 1 735 736 0=3840 1=1.000000e-05 2=1
BinaryOp                 mul_101                  2 1 711 736 737 0=2
BinaryOp                 add_102                  2 1 704 737 738 0=0
Split                    splitncnn_49             1 2 738 739 740
RMSNorm                  rmsn_400                 1 1 740 741 0=3840 1=1.000000e-05 2=1
BinaryOp                 add_103                  1 1 709 742 0=0 1=1 2=1.0
BinaryOp                 mul_104                  2 1 741 742 743 0=2
Split                    splitncnn_50             1 2 743 744 745
Gemm                     gemm_93                  1 1 745 746 10=-1 2=0 3=1 4=0 5=1 6=1 7=0 8=10240 9=3840
Gemm                     gemm_94                  1 1 744 747 10=-1 2=0 3=1 4=0 5=1 6=1 7=0 8=10240 9=3840
Swish                    silu_251                 1 1 746 748
BinaryOp                 mul_105                  2 1 748 747 749 0=2
Gemm                     gemm_95                  1 1 749 750 10=-1 2=0 3=1 4=0 5=1 6=1 7=0 8=3840 9=10240
RMSNorm                  rmsn_401                 1 1 750 751 0=3840 1=1.000000e-05 2=1
BinaryOp                 mul_106                  2 1 712 751 752 0=2
BinaryOp                 add_107                  2 1 739 752 753 0=0
Split                    splitncnn_51             1 2 753 754 755
Gemm                     gemm_96                  1 1 143 756 10=4 2=0 3=1 4=0 5=1 6=1 7=1 8=15360 9=256
Slice                    chunk_12                 1 4 756 757 758 759 760 -23300=4,-233,-233,-233,-233 1=1
TanH                     tanh_294                 1 1 758 761
TanH                     tanh_295                 1 1 760 762
RMSNorm                  rmsn_402                 1 1 755 763 0=3840 1=1.000000e-05 2=1
BinaryOp                 add_108                  1 1 757 764 0=0 1=1 2=1.0
BinaryOp                 mul_109                  2 1 763 764 765 0=2
Split                    splitncnn_52             1 3 765 766 767 768
Gemm                     gemm_97                  1 1 768 769 10=-1 2=0 3=1 4=0 5=1 6=1 7=0 8=3840 9=3840
Gemm                     gemm_98                  1 1 767 770 10=-1 2=0 3=1 4=0 5=1 6=1 7=0 8=3840 9=3840
Gemm                     gemm_99                  1 1 766 771 10=-1 2=0 3=1 4=0 5=1 6=1 7=0 8=3840 9=3840
Reshape                  unflatten_666            1 1 769 772 0=128 1=30 2=-1
Reshape                  unflatten_667            1 1 770 773 0=128 1=30 2=-1
Reshape                  unflatten_668            1 1 771 774 0=128 1=30 2=-1
RMSNorm                  rmsn_403                 1 1 772 775 0=128 1=1.000000e-05 2=1
RMSNorm                  rmsn_404                 1 1 773 776 0=128 1=1.000000e-05 2=1
Permute                  permute_558              1 1 775 777 0=2
RotaryEmbed              rope_24                  3 1 777 39 100 778 0=1
Permute                  permute_559              1 1 776 779 0=2
RotaryEmbed              rope_25                  3 1 779 38 99 780 0=1
Permute                  permute_560              1 1 774 781 0=2
SDPA                     sdpa_762                 3 1 778 780 781 782 5=0
Permute                  permute_561              1 1 782 783 0=2
Reshape                  flatten_732              1 1 783 784 0=3840 1=-1
Gemm                     gemm_100                 1 1 784 785 10=-1 2=0 3=1 4=0 5=1 6=1 7=0 8=3840 9=3840
RMSNorm                  rmsn_405                 1 1 785 786 0=3840 1=1.000000e-05 2=1
BinaryOp                 mul_110                  2 1 761 786 787 0=2
BinaryOp                 add_111                  2 1 754 787 788 0=0
Split                    splitncnn_53             1 2 788 789 790
RMSNorm                  rmsn_406                 1 1 790 791 0=3840 1=1.000000e-05 2=1
BinaryOp                 add_112                  1 1 759 792 0=0 1=1 2=1.0
BinaryOp                 mul_113                  2 1 791 792 793 0=2
Split                    splitncnn_54             1 2 793 794 795
Gemm                     gemm_101                 1 1 795 796 10=-1 2=0 3=1 4=0 5=1 6=1 7=0 8=10240 9=3840
Gemm                     gemm_102                 1 1 794 797 10=-1 2=0 3=1 4=0 5=1 6=1 7=0 8=10240 9=3840
Swish                    silu_252                 1 1 796 798
BinaryOp                 mul_114                  2 1 798 797 799 0=2
Gemm                     gemm_103                 1 1 799 800 10=-1 2=0 3=1 4=0 5=1 6=1 7=0 8=3840 9=10240
RMSNorm                  rmsn_407                 1 1 800 801 0=3840 1=1.000000e-05 2=1
BinaryOp                 mul_115                  2 1 762 801 802 0=2
BinaryOp                 add_116                  2 1 789 802 803 0=0
Split                    splitncnn_55             1 2 803 804 805
Gemm                     gemm_104                 1 1 142 806 10=4 2=0 3=1 4=0 5=1 6=1 7=1 8=15360 9=256
Slice                    chunk_13                 1 4 806 807 808 809 810 -23300=4,-233,-233,-233,-233 1=1
TanH                     tanh_296                 1 1 808 811
TanH                     tanh_297                 1 1 810 812
RMSNorm                  rmsn_408                 1 1 805 813 0=3840 1=1.000000e-05 2=1
BinaryOp                 add_117                  1 1 807 814 0=0 1=1 2=1.0
BinaryOp                 mul_118                  2 1 813 814 815 0=2
Split                    splitncnn_56             1 3 815 816 817 818
Gemm                     gemm_105                 1 1 818 819 10=-1 2=0 3=1 4=0 5=1 6=1 7=0 8=3840 9=3840
Gemm                     gemm_106                 1 1 817 820 10=-1 2=0 3=1 4=0 5=1 6=1 7=0 8=3840 9=3840
Gemm                     gemm_107                 1 1 816 821 10=-1 2=0 3=1 4=0 5=1 6=1 7=0 8=3840 9=3840
Reshape                  unflatten_669            1 1 819 822 0=128 1=30 2=-1
Reshape                  unflatten_670            1 1 820 823 0=128 1=30 2=-1
Reshape                  unflatten_671            1 1 821 824 0=128 1=30 2=-1
RMSNorm                  rmsn_409                 1 1 822 825 0=128 1=1.000000e-05 2=1
RMSNorm                  rmsn_410                 1 1 823 826 0=128 1=1.000000e-05 2=1
Permute                  permute_562              1 1 825 827 0=2
RotaryEmbed              rope_26                  3 1 827 37 98 828 0=1
Permute                  permute_563              1 1 826 829 0=2
RotaryEmbed              rope_27                  3 1 829 36 97 830 0=1
Permute                  permute_564              1 1 824 831 0=2
SDPA                     sdpa_763                 3 1 828 830 831 832 5=0
Permute                  permute_565              1 1 832 833 0=2
Reshape                  flatten_733              1 1 833 834 0=3840 1=-1
Gemm                     gemm_108                 1 1 834 835 10=-1 2=0 3=1 4=0 5=1 6=1 7=0 8=3840 9=3840
RMSNorm                  rmsn_411                 1 1 835 836 0=3840 1=1.000000e-05 2=1
BinaryOp                 mul_119                  2 1 811 836 837 0=2
BinaryOp                 add_120                  2 1 804 837 838 0=0
Split                    splitncnn_57             1 2 838 839 840
RMSNorm                  rmsn_412                 1 1 840 841 0=3840 1=1.000000e-05 2=1
BinaryOp                 add_121                  1 1 809 842 0=0 1=1 2=1.0
BinaryOp                 mul_122                  2 1 841 842 843 0=2
Split                    splitncnn_58             1 2 843 844 845
Gemm                     gemm_109                 1 1 845 846 10=-1 2=0 3=1 4=0 5=1 6=1 7=0 8=10240 9=3840
Gemm                     gemm_110                 1 1 844 847 10=-1 2=0 3=1 4=0 5=1 6=1 7=0 8=10240 9=3840
Swish                    silu_253                 1 1 846 848
BinaryOp                 mul_123                  2 1 848 847 849 0=2
Gemm                     gemm_111                 1 1 849 850 10=-1 2=0 3=1 4=0 5=1 6=1 7=0 8=3840 9=10240
RMSNorm                  rmsn_413                 1 1 850 851 0=3840 1=1.000000e-05 2=1
BinaryOp                 mul_124                  2 1 812 851 852 0=2
BinaryOp                 add_125                  2 1 839 852 853 0=0
Split                    splitncnn_59             1 2 853 854 855
Gemm                     gemm_112                 1 1 141 856 10=4 2=0 3=1 4=0 5=1 6=1 7=1 8=15360 9=256
Slice                    chunk_14                 1 4 856 857 858 859 860 -23300=4,-233,-233,-233,-233 1=1
TanH                     tanh_298                 1 1 858 861
TanH                     tanh_299                 1 1 860 862
RMSNorm                  rmsn_414                 1 1 855 863 0=3840 1=1.000000e-05 2=1
BinaryOp                 add_126                  1 1 857 864 0=0 1=1 2=1.0
BinaryOp                 mul_127                  2 1 863 864 865 0=2
Split                    splitncnn_60             1 3 865 866 867 868
Gemm                     gemm_113                 1 1 868 869 10=-1 2=0 3=1 4=0 5=1 6=1 7=0 8=3840 9=3840
Gemm                     gemm_114                 1 1 867 870 10=-1 2=0 3=1 4=0 5=1 6=1 7=0 8=3840 9=3840
Gemm                     gemm_115                 1 1 866 871 10=-1 2=0 3=1 4=0 5=1 6=1 7=0 8=3840 9=3840
Reshape                  unflatten_672            1 1 869 872 0=128 1=30 2=-1
Reshape                  unflatten_673            1 1 870 873 0=128 1=30 2=-1
Reshape                  unflatten_674            1 1 871 874 0=128 1=30 2=-1
RMSNorm                  rmsn_415                 1 1 872 875 0=128 1=1.000000e-05 2=1
RMSNorm                  rmsn_416                 1 1 873 876 0=128 1=1.000000e-05 2=1
Permute                  permute_566              1 1 875 877 0=2
RotaryEmbed              rope_28                  3 1 877 35 96 878 0=1
Permute                  permute_567              1 1 876 879 0=2
RotaryEmbed              rope_29                  3 1 879 34 95 880 0=1
Permute                  permute_568              1 1 874 881 0=2
SDPA                     sdpa_764                 3 1 878 880 881 882 5=0
Permute                  permute_569              1 1 882 883 0=2
Reshape                  flatten_734              1 1 883 884 0=3840 1=-1
Gemm                     gemm_116                 1 1 884 885 10=-1 2=0 3=1 4=0 5=1 6=1 7=0 8=3840 9=3840
RMSNorm                  rmsn_417                 1 1 885 886 0=3840 1=1.000000e-05 2=1
BinaryOp                 mul_128                  2 1 861 886 887 0=2
BinaryOp                 add_129                  2 1 854 887 888 0=0
Split                    splitncnn_61             1 2 888 889 890
RMSNorm                  rmsn_418                 1 1 890 891 0=3840 1=1.000000e-05 2=1
BinaryOp                 add_130                  1 1 859 892 0=0 1=1 2=1.0
BinaryOp                 mul_131                  2 1 891 892 893 0=2
Split                    splitncnn_62             1 2 893 894 895
Gemm                     gemm_117                 1 1 895 896 10=-1 2=0 3=1 4=0 5=1 6=1 7=0 8=10240 9=3840
Gemm                     gemm_118                 1 1 894 897 10=-1 2=0 3=1 4=0 5=1 6=1 7=0 8=10240 9=3840
Swish                    silu_254                 1 1 896 898
BinaryOp                 mul_132                  2 1 898 897 899 0=2
Gemm                     gemm_119                 1 1 899 900 10=-1 2=0 3=1 4=0 5=1 6=1 7=0 8=3840 9=10240
RMSNorm                  rmsn_419                 1 1 900 901 0=3840 1=1.000000e-05 2=1
BinaryOp                 mul_133                  2 1 862 901 902 0=2
BinaryOp                 add_134                  2 1 889 902 903 0=0
Split                    splitncnn_63             1 2 903 904 905
Gemm                     gemm_120                 1 1 140 906 10=4 2=0 3=1 4=0 5=1 6=1 7=1 8=15360 9=256
Slice                    chunk_15                 1 4 906 907 908 909 910 -23300=4,-233,-233,-233,-233 1=1
TanH                     tanh_300                 1 1 908 911
TanH                     tanh_301                 1 1 910 912
RMSNorm                  rmsn_420                 1 1 905 913 0=3840 1=1.000000e-05 2=1
BinaryOp                 add_135                  1 1 907 914 0=0 1=1 2=1.0
BinaryOp                 mul_136                  2 1 913 914 915 0=2
Split                    splitncnn_64             1 3 915 916 917 918
Gemm                     gemm_121                 1 1 918 919 10=-1 2=0 3=1 4=0 5=1 6=1 7=0 8=3840 9=3840
Gemm                     gemm_122                 1 1 917 920 10=-1 2=0 3=1 4=0 5=1 6=1 7=0 8=3840 9=3840
Gemm                     gemm_123                 1 1 916 921 10=-1 2=0 3=1 4=0 5=1 6=1 7=0 8=3840 9=3840
Reshape                  unflatten_675            1 1 919 922 0=128 1=30 2=-1
Reshape                  unflatten_676            1 1 920 923 0=128 1=30 2=-1
Reshape                  unflatten_677            1 1 921 924 0=128 1=30 2=-1
RMSNorm                  rmsn_421                 1 1 922 925 0=128 1=1.000000e-05 2=1
RMSNorm                  rmsn_422                 1 1 923 926 0=128 1=1.000000e-05 2=1
Permute                  permute_570              1 1 925 927 0=2
RotaryEmbed              rope_30                  3 1 927 33 94 928 0=1
Permute                  permute_571              1 1 926 929 0=2
RotaryEmbed              rope_31                  3 1 929 32 93 930 0=1
Permute                  permute_572              1 1 924 931 0=2
SDPA                     sdpa_765                 3 1 928 930 931 932 5=0
Permute                  permute_573              1 1 932 933 0=2
Reshape                  flatten_735              1 1 933 934 0=3840 1=-1
Gemm                     gemm_124                 1 1 934 935 10=-1 2=0 3=1 4=0 5=1 6=1 7=0 8=3840 9=3840
RMSNorm                  rmsn_423                 1 1 935 936 0=3840 1=1.000000e-05 2=1
BinaryOp                 mul_137                  2 1 911 936 937 0=2
BinaryOp                 add_138                  2 1 904 937 938 0=0
Split                    splitncnn_65             1 2 938 939 940
RMSNorm                  rmsn_424                 1 1 940 941 0=3840 1=1.000000e-05 2=1
BinaryOp                 add_139                  1 1 909 942 0=0 1=1 2=1.0
BinaryOp                 mul_140                  2 1 941 942 943 0=2
Split                    splitncnn_66             1 2 943 944 945
Gemm                     gemm_125                 1 1 945 946 10=-1 2=0 3=1 4=0 5=1 6=1 7=0 8=10240 9=3840
Gemm                     gemm_126                 1 1 944 947 10=-1 2=0 3=1 4=0 5=1 6=1 7=0 8=10240 9=3840
Swish                    silu_255                 1 1 946 948
BinaryOp                 mul_141                  2 1 948 947 949 0=2
Gemm                     gemm_127                 1 1 949 950 10=-1 2=0 3=1 4=0 5=1 6=1 7=0 8=3840 9=10240
RMSNorm                  rmsn_425                 1 1 950 951 0=3840 1=1.000000e-05 2=1
BinaryOp                 mul_142                  2 1 912 951 952 0=2
BinaryOp                 add_143                  2 1 939 952 953 0=0
Split                    splitncnn_67             1 2 953 954 955
Gemm                     gemm_128                 1 1 139 956 10=4 2=0 3=1 4=0 5=1 6=1 7=1 8=15360 9=256
Slice                    chunk_16                 1 4 956 957 958 959 960 -23300=4,-233,-233,-233,-233 1=1
TanH                     tanh_302                 1 1 958 961
TanH                     tanh_303                 1 1 960 962
RMSNorm                  rmsn_426                 1 1 955 963 0=3840 1=1.000000e-05 2=1
BinaryOp                 add_144                  1 1 957 964 0=0 1=1 2=1.0
BinaryOp                 mul_145                  2 1 963 964 965 0=2
Split                    splitncnn_68             1 3 965 966 967 968
Gemm                     gemm_129                 1 1 968 969 10=-1 2=0 3=1 4=0 5=1 6=1 7=0 8=3840 9=3840
Gemm                     gemm_130                 1 1 967 970 10=-1 2=0 3=1 4=0 5=1 6=1 7=0 8=3840 9=3840
Gemm                     gemm_131                 1 1 966 971 10=-1 2=0 3=1 4=0 5=1 6=1 7=0 8=3840 9=3840
Reshape                  unflatten_678            1 1 969 972 0=128 1=30 2=-1
Reshape                  unflatten_679            1 1 970 973 0=128 1=30 2=-1
Reshape                  unflatten_680            1 1 971 974 0=128 1=30 2=-1
RMSNorm                  rmsn_427                 1 1 972 975 0=128 1=1.000000e-05 2=1
RMSNorm                  rmsn_428                 1 1 973 976 0=128 1=1.000000e-05 2=1
Permute                  permute_574              1 1 975 977 0=2
RotaryEmbed              rope_32                  3 1 977 31 92 978 0=1
Permute                  permute_575              1 1 976 979 0=2
RotaryEmbed              rope_33                  3 1 979 30 91 980 0=1
Permute                  permute_576              1 1 974 981 0=2
SDPA                     sdpa_766                 3 1 978 980 981 982 5=0
Permute                  permute_577              1 1 982 983 0=2
Reshape                  flatten_736              1 1 983 984 0=3840 1=-1
Gemm                     gemm_132                 1 1 984 985 10=-1 2=0 3=1 4=0 5=1 6=1 7=0 8=3840 9=3840
RMSNorm                  rmsn_429                 1 1 985 986 0=3840 1=1.000000e-05 2=1
BinaryOp                 mul_146                  2 1 961 986 987 0=2
BinaryOp                 add_147                  2 1 954 987 988 0=0
Split                    splitncnn_69             1 2 988 989 990
RMSNorm                  rmsn_430                 1 1 990 991 0=3840 1=1.000000e-05 2=1
BinaryOp                 add_148                  1 1 959 992 0=0 1=1 2=1.0
BinaryOp                 mul_149                  2 1 991 992 993 0=2
Split                    splitncnn_70             1 2 993 994 995
Gemm                     gemm_133                 1 1 995 996 10=-1 2=0 3=1 4=0 5=1 6=1 7=0 8=10240 9=3840
Gemm                     gemm_134                 1 1 994 997 10=-1 2=0 3=1 4=0 5=1 6=1 7=0 8=10240 9=3840
Swish                    silu_256                 1 1 996 998
BinaryOp                 mul_150                  2 1 998 997 999 0=2
Gemm                     gemm_135                 1 1 999 1000 10=-1 2=0 3=1 4=0 5=1 6=1 7=0 8=3840 9=10240
RMSNorm                  rmsn_431                 1 1 1000 1001 0=3840 1=1.000000e-05 2=1
BinaryOp                 mul_151                  2 1 962 1001 1002 0=2
BinaryOp                 add_152                  2 1 989 1002 1003 0=0
Split                    splitncnn_71             1 2 1003 1004 1005
Gemm                     gemm_136                 1 1 138 1006 10=4 2=0 3=1 4=0 5=1 6=1 7=1 8=15360 9=256
Slice                    chunk_17                 1 4 1006 1007 1008 1009 1010 -23300=4,-233,-233,-233,-233 1=1
TanH                     tanh_304                 1 1 1008 1011
TanH                     tanh_305                 1 1 1010 1012
RMSNorm                  rmsn_432                 1 1 1005 1013 0=3840 1=1.000000e-05 2=1
BinaryOp                 add_153                  1 1 1007 1014 0=0 1=1 2=1.0
BinaryOp                 mul_154                  2 1 1013 1014 1015 0=2
Split                    splitncnn_72             1 3 1015 1016 1017 1018
Gemm                     gemm_137                 1 1 1018 1019 10=-1 2=0 3=1 4=0 5=1 6=1 7=0 8=3840 9=3840
Gemm                     gemm_138                 1 1 1017 1020 10=-1 2=0 3=1 4=0 5=1 6=1 7=0 8=3840 9=3840
Gemm                     gemm_139                 1 1 1016 1021 10=-1 2=0 3=1 4=0 5=1 6=1 7=0 8=3840 9=3840
Reshape                  unflatten_681            1 1 1019 1022 0=128 1=30 2=-1
Reshape                  unflatten_682            1 1 1020 1023 0=128 1=30 2=-1
Reshape                  unflatten_683            1 1 1021 1024 0=128 1=30 2=-1
RMSNorm                  rmsn_433                 1 1 1022 1025 0=128 1=1.000000e-05 2=1
RMSNorm                  rmsn_434                 1 1 1023 1026 0=128 1=1.000000e-05 2=1
Permute                  permute_578              1 1 1025 1027 0=2
RotaryEmbed              rope_34                  3 1 1027 29 90 1028 0=1
Permute                  permute_579              1 1 1026 1029 0=2
RotaryEmbed              rope_35                  3 1 1029 28 89 1030 0=1
Permute                  permute_580              1 1 1024 1031 0=2
SDPA                     sdpa_767                 3 1 1028 1030 1031 1032 5=0
Permute                  permute_581              1 1 1032 1033 0=2
Reshape                  flatten_737              1 1 1033 1034 0=3840 1=-1
Gemm                     gemm_140                 1 1 1034 1035 10=-1 2=0 3=1 4=0 5=1 6=1 7=0 8=3840 9=3840
RMSNorm                  rmsn_435                 1 1 1035 1036 0=3840 1=1.000000e-05 2=1
BinaryOp                 mul_155                  2 1 1011 1036 1037 0=2
BinaryOp                 add_156                  2 1 1004 1037 1038 0=0
Split                    splitncnn_73             1 2 1038 1039 1040
RMSNorm                  rmsn_436                 1 1 1040 1041 0=3840 1=1.000000e-05 2=1
BinaryOp                 add_157                  1 1 1009 1042 0=0 1=1 2=1.0
BinaryOp                 mul_158                  2 1 1041 1042 1043 0=2
Split                    splitncnn_74             1 2 1043 1044 1045
Gemm                     gemm_141                 1 1 1045 1046 10=-1 2=0 3=1 4=0 5=1 6=1 7=0 8=10240 9=3840
Gemm                     gemm_142                 1 1 1044 1047 10=-1 2=0 3=1 4=0 5=1 6=1 7=0 8=10240 9=3840
Swish                    silu_257                 1 1 1046 1048
BinaryOp                 mul_159                  2 1 1048 1047 1049 0=2
Gemm                     gemm_143                 1 1 1049 1050 10=-1 2=0 3=1 4=0 5=1 6=1 7=0 8=3840 9=10240
RMSNorm                  rmsn_437                 1 1 1050 1051 0=3840 1=1.000000e-05 2=1
BinaryOp                 mul_160                  2 1 1012 1051 1052 0=2
BinaryOp                 add_161                  2 1 1039 1052 1053 0=0
Split                    splitncnn_75             1 2 1053 1054 1055
Gemm                     gemm_144                 1 1 137 1056 10=4 2=0 3=1 4=0 5=1 6=1 7=1 8=15360 9=256
Slice                    chunk_18                 1 4 1056 1057 1058 1059 1060 -23300=4,-233,-233,-233,-233 1=1
TanH                     tanh_306                 1 1 1058 1061
TanH                     tanh_307                 1 1 1060 1062
RMSNorm                  rmsn_438                 1 1 1055 1063 0=3840 1=1.000000e-05 2=1
BinaryOp                 add_162                  1 1 1057 1064 0=0 1=1 2=1.0
BinaryOp                 mul_163                  2 1 1063 1064 1065 0=2
Split                    splitncnn_76             1 3 1065 1066 1067 1068
Gemm                     gemm_145                 1 1 1068 1069 10=-1 2=0 3=1 4=0 5=1 6=1 7=0 8=3840 9=3840
Gemm                     gemm_146                 1 1 1067 1070 10=-1 2=0 3=1 4=0 5=1 6=1 7=0 8=3840 9=3840
Gemm                     gemm_147                 1 1 1066 1071 10=-1 2=0 3=1 4=0 5=1 6=1 7=0 8=3840 9=3840
Reshape                  unflatten_684            1 1 1069 1072 0=128 1=30 2=-1
Reshape                  unflatten_685            1 1 1070 1073 0=128 1=30 2=-1
Reshape                  unflatten_686            1 1 1071 1074 0=128 1=30 2=-1
RMSNorm                  rmsn_439                 1 1 1072 1075 0=128 1=1.000000e-05 2=1
RMSNorm                  rmsn_440                 1 1 1073 1076 0=128 1=1.000000e-05 2=1
Permute                  permute_582              1 1 1075 1077 0=2
RotaryEmbed              rope_36                  3 1 1077 27 88 1078 0=1
Permute                  permute_583              1 1 1076 1079 0=2
RotaryEmbed              rope_37                  3 1 1079 26 87 1080 0=1
Permute                  permute_584              1 1 1074 1081 0=2
SDPA                     sdpa_768                 3 1 1078 1080 1081 1082 5=0
Permute                  permute_585              1 1 1082 1083 0=2
Reshape                  flatten_738              1 1 1083 1084 0=3840 1=-1
Gemm                     gemm_148                 1 1 1084 1085 10=-1 2=0 3=1 4=0 5=1 6=1 7=0 8=3840 9=3840
RMSNorm                  rmsn_441                 1 1 1085 1086 0=3840 1=1.000000e-05 2=1
BinaryOp                 mul_164                  2 1 1061 1086 1087 0=2
BinaryOp                 add_165                  2 1 1054 1087 1088 0=0
Split                    splitncnn_77             1 2 1088 1089 1090
RMSNorm                  rmsn_442                 1 1 1090 1091 0=3840 1=1.000000e-05 2=1
BinaryOp                 add_166                  1 1 1059 1092 0=0 1=1 2=1.0
BinaryOp                 mul_167                  2 1 1091 1092 1093 0=2
Split                    splitncnn_78             1 2 1093 1094 1095
Gemm                     gemm_149                 1 1 1095 1096 10=-1 2=0 3=1 4=0 5=1 6=1 7=0 8=10240 9=3840
Gemm                     gemm_150                 1 1 1094 1097 10=-1 2=0 3=1 4=0 5=1 6=1 7=0 8=10240 9=3840
Swish                    silu_258                 1 1 1096 1098
BinaryOp                 mul_168                  2 1 1098 1097 1099 0=2
Gemm                     gemm_151                 1 1 1099 1100 10=-1 2=0 3=1 4=0 5=1 6=1 7=0 8=3840 9=10240
RMSNorm                  rmsn_443                 1 1 1100 1101 0=3840 1=1.000000e-05 2=1
BinaryOp                 mul_169                  2 1 1062 1101 1102 0=2
BinaryOp                 add_170                  2 1 1089 1102 1103 0=0
Split                    splitncnn_79             1 2 1103 1104 1105
Gemm                     gemm_152                 1 1 136 1106 10=4 2=0 3=1 4=0 5=1 6=1 7=1 8=15360 9=256
Slice                    chunk_19                 1 4 1106 1107 1108 1109 1110 -23300=4,-233,-233,-233,-233 1=1
TanH                     tanh_308                 1 1 1108 1111
TanH                     tanh_309                 1 1 1110 1112
RMSNorm                  rmsn_444                 1 1 1105 1113 0=3840 1=1.000000e-05 2=1
BinaryOp                 add_171                  1 1 1107 1114 0=0 1=1 2=1.0
BinaryOp                 mul_172                  2 1 1113 1114 1115 0=2
Split                    splitncnn_80             1 3 1115 1116 1117 1118
Gemm                     gemm_153                 1 1 1118 1119 10=-1 2=0 3=1 4=0 5=1 6=1 7=0 8=3840 9=3840
Gemm                     gemm_154                 1 1 1117 1120 10=-1 2=0 3=1 4=0 5=1 6=1 7=0 8=3840 9=3840
Gemm                     gemm_155                 1 1 1116 1121 10=-1 2=0 3=1 4=0 5=1 6=1 7=0 8=3840 9=3840
Reshape                  unflatten_687            1 1 1119 1122 0=128 1=30 2=-1
Reshape                  unflatten_688            1 1 1120 1123 0=128 1=30 2=-1
Reshape                  unflatten_689            1 1 1121 1124 0=128 1=30 2=-1
RMSNorm                  rmsn_445                 1 1 1122 1125 0=128 1=1.000000e-05 2=1
RMSNorm                  rmsn_446                 1 1 1123 1126 0=128 1=1.000000e-05 2=1
Permute                  permute_586              1 1 1125 1127 0=2
RotaryEmbed              rope_38                  3 1 1127 25 86 1128 0=1
Permute                  permute_587              1 1 1126 1129 0=2
RotaryEmbed              rope_39                  3 1 1129 24 85 1130 0=1
Permute                  permute_588              1 1 1124 1131 0=2
SDPA                     sdpa_769                 3 1 1128 1130 1131 1132 5=0
Permute                  permute_589              1 1 1132 1133 0=2
Reshape                  flatten_739              1 1 1133 1134 0=3840 1=-1
Gemm                     gemm_156                 1 1 1134 1135 10=-1 2=0 3=1 4=0 5=1 6=1 7=0 8=3840 9=3840
RMSNorm                  rmsn_447                 1 1 1135 1136 0=3840 1=1.000000e-05 2=1
BinaryOp                 mul_173                  2 1 1111 1136 1137 0=2
BinaryOp                 add_174                  2 1 1104 1137 1138 0=0
Split                    splitncnn_81             1 2 1138 1139 1140
RMSNorm                  rmsn_448                 1 1 1140 1141 0=3840 1=1.000000e-05 2=1
BinaryOp                 add_175                  1 1 1109 1142 0=0 1=1 2=1.0
BinaryOp                 mul_176                  2 1 1141 1142 1143 0=2
Split                    splitncnn_82             1 2 1143 1144 1145
Gemm                     gemm_157                 1 1 1145 1146 10=-1 2=0 3=1 4=0 5=1 6=1 7=0 8=10240 9=3840
Gemm                     gemm_158                 1 1 1144 1147 10=-1 2=0 3=1 4=0 5=1 6=1 7=0 8=10240 9=3840
Swish                    silu_259                 1 1 1146 1148
BinaryOp                 mul_177                  2 1 1148 1147 1149 0=2
Gemm                     gemm_159                 1 1 1149 1150 10=-1 2=0 3=1 4=0 5=1 6=1 7=0 8=3840 9=10240
RMSNorm                  rmsn_449                 1 1 1150 1151 0=3840 1=1.000000e-05 2=1
BinaryOp                 mul_178                  2 1 1112 1151 1152 0=2
BinaryOp                 add_179                  2 1 1139 1152 1153 0=0
Split                    splitncnn_83             1 2 1153 1154 1155
Gemm                     gemm_160                 1 1 135 1156 10=4 2=0 3=1 4=0 5=1 6=1 7=1 8=15360 9=256
Slice                    chunk_20                 1 4 1156 1157 1158 1159 1160 -23300=4,-233,-233,-233,-233 1=1
TanH                     tanh_310                 1 1 1158 1161
TanH                     tanh_311                 1 1 1160 1162
RMSNorm                  rmsn_450                 1 1 1155 1163 0=3840 1=1.000000e-05 2=1
BinaryOp                 add_180                  1 1 1157 1164 0=0 1=1 2=1.0
BinaryOp                 mul_181                  2 1 1163 1164 1165 0=2
Split                    splitncnn_84             1 3 1165 1166 1167 1168
Gemm                     gemm_161                 1 1 1168 1169 10=-1 2=0 3=1 4=0 5=1 6=1 7=0 8=3840 9=3840
Gemm                     gemm_162                 1 1 1167 1170 10=-1 2=0 3=1 4=0 5=1 6=1 7=0 8=3840 9=3840
Gemm                     gemm_163                 1 1 1166 1171 10=-1 2=0 3=1 4=0 5=1 6=1 7=0 8=3840 9=3840
Reshape                  unflatten_690            1 1 1169 1172 0=128 1=30 2=-1
Reshape                  unflatten_691            1 1 1170 1173 0=128 1=30 2=-1
Reshape                  unflatten_692            1 1 1171 1174 0=128 1=30 2=-1
RMSNorm                  rmsn_451                 1 1 1172 1175 0=128 1=1.000000e-05 2=1
RMSNorm                  rmsn_452                 1 1 1173 1176 0=128 1=1.000000e-05 2=1
Permute                  permute_590              1 1 1175 1177 0=2
RotaryEmbed              rope_40                  3 1 1177 23 84 1178 0=1
Permute                  permute_591              1 1 1176 1179 0=2
RotaryEmbed              rope_41                  3 1 1179 22 83 1180 0=1
Permute                  permute_592              1 1 1174 1181 0=2
SDPA                     sdpa_770                 3 1 1178 1180 1181 1182 5=0
Permute                  permute_593              1 1 1182 1183 0=2
Reshape                  flatten_740              1 1 1183 1184 0=3840 1=-1
Gemm                     gemm_164                 1 1 1184 1185 10=-1 2=0 3=1 4=0 5=1 6=1 7=0 8=3840 9=3840
RMSNorm                  rmsn_453                 1 1 1185 1186 0=3840 1=1.000000e-05 2=1
BinaryOp                 mul_182                  2 1 1161 1186 1187 0=2
BinaryOp                 add_183                  2 1 1154 1187 1188 0=0
Split                    splitncnn_85             1 2 1188 1189 1190
RMSNorm                  rmsn_454                 1 1 1190 1191 0=3840 1=1.000000e-05 2=1
BinaryOp                 add_184                  1 1 1159 1192 0=0 1=1 2=1.0
BinaryOp                 mul_185                  2 1 1191 1192 1193 0=2
Split                    splitncnn_86             1 2 1193 1194 1195
Gemm                     gemm_165                 1 1 1195 1196 10=-1 2=0 3=1 4=0 5=1 6=1 7=0 8=10240 9=3840
Gemm                     gemm_166                 1 1 1194 1197 10=-1 2=0 3=1 4=0 5=1 6=1 7=0 8=10240 9=3840
Swish                    silu_260                 1 1 1196 1198
BinaryOp                 mul_186                  2 1 1198 1197 1199 0=2
Gemm                     gemm_167                 1 1 1199 1200 10=-1 2=0 3=1 4=0 5=1 6=1 7=0 8=3840 9=10240
RMSNorm                  rmsn_455                 1 1 1200 1201 0=3840 1=1.000000e-05 2=1
BinaryOp                 mul_187                  2 1 1162 1201 1202 0=2
BinaryOp                 add_188                  2 1 1189 1202 1203 0=0
Split                    splitncnn_87             1 2 1203 1204 1205
Gemm                     gemm_168                 1 1 134 1206 10=4 2=0 3=1 4=0 5=1 6=1 7=1 8=15360 9=256
Slice                    chunk_21                 1 4 1206 1207 1208 1209 1210 -23300=4,-233,-233,-233,-233 1=1
TanH                     tanh_312                 1 1 1208 1211
TanH                     tanh_313                 1 1 1210 1212
RMSNorm                  rmsn_456                 1 1 1205 1213 0=3840 1=1.000000e-05 2=1
BinaryOp                 add_189                  1 1 1207 1214 0=0 1=1 2=1.0
BinaryOp                 mul_190                  2 1 1213 1214 1215 0=2
Split                    splitncnn_88             1 3 1215 1216 1217 1218
Gemm                     gemm_169                 1 1 1218 1219 10=-1 2=0 3=1 4=0 5=1 6=1 7=0 8=3840 9=3840
Gemm                     gemm_170                 1 1 1217 1220 10=-1 2=0 3=1 4=0 5=1 6=1 7=0 8=3840 9=3840
Gemm                     gemm_171                 1 1 1216 1221 10=-1 2=0 3=1 4=0 5=1 6=1 7=0 8=3840 9=3840
Reshape                  unflatten_693            1 1 1219 1222 0=128 1=30 2=-1
Reshape                  unflatten_694            1 1 1220 1223 0=128 1=30 2=-1
Reshape                  unflatten_695            1 1 1221 1224 0=128 1=30 2=-1
RMSNorm                  rmsn_457                 1 1 1222 1225 0=128 1=1.000000e-05 2=1
RMSNorm                  rmsn_458                 1 1 1223 1226 0=128 1=1.000000e-05 2=1
Permute                  permute_594              1 1 1225 1227 0=2
RotaryEmbed              rope_42                  3 1 1227 21 82 1228 0=1
Permute                  permute_595              1 1 1226 1229 0=2
RotaryEmbed              rope_43                  3 1 1229 20 81 1230 0=1
Permute                  permute_596              1 1 1224 1231 0=2
SDPA                     sdpa_771                 3 1 1228 1230 1231 1232 5=0
Permute                  permute_597              1 1 1232 1233 0=2
Reshape                  flatten_741              1 1 1233 1234 0=3840 1=-1
Gemm                     gemm_172                 1 1 1234 1235 10=-1 2=0 3=1 4=0 5=1 6=1 7=0 8=3840 9=3840
RMSNorm                  rmsn_459                 1 1 1235 1236 0=3840 1=1.000000e-05 2=1
BinaryOp                 mul_191                  2 1 1211 1236 1237 0=2
BinaryOp                 add_192                  2 1 1204 1237 1238 0=0
Split                    splitncnn_89             1 2 1238 1239 1240
RMSNorm                  rmsn_460                 1 1 1240 1241 0=3840 1=1.000000e-05 2=1
BinaryOp                 add_193                  1 1 1209 1242 0=0 1=1 2=1.0
BinaryOp                 mul_194                  2 1 1241 1242 1243 0=2
Split                    splitncnn_90             1 2 1243 1244 1245
Gemm                     gemm_173                 1 1 1245 1246 10=-1 2=0 3=1 4=0 5=1 6=1 7=0 8=10240 9=3840
Gemm                     gemm_174                 1 1 1244 1247 10=-1 2=0 3=1 4=0 5=1 6=1 7=0 8=10240 9=3840
Swish                    silu_261                 1 1 1246 1248
BinaryOp                 mul_195                  2 1 1248 1247 1249 0=2
Gemm                     gemm_175                 1 1 1249 1250 10=-1 2=0 3=1 4=0 5=1 6=1 7=0 8=3840 9=10240
RMSNorm                  rmsn_461                 1 1 1250 1251 0=3840 1=1.000000e-05 2=1
BinaryOp                 mul_196                  2 1 1212 1251 1252 0=2
BinaryOp                 add_197                  2 1 1239 1252 1253 0=0
Split                    splitncnn_91             1 2 1253 1254 1255
Gemm                     gemm_176                 1 1 133 1256 10=4 2=0 3=1 4=0 5=1 6=1 7=1 8=15360 9=256
Slice                    chunk_22                 1 4 1256 1257 1258 1259 1260 -23300=4,-233,-233,-233,-233 1=1
TanH                     tanh_314                 1 1 1258 1261
TanH                     tanh_315                 1 1 1260 1262
RMSNorm                  rmsn_462                 1 1 1255 1263 0=3840 1=1.000000e-05 2=1
BinaryOp                 add_198                  1 1 1257 1264 0=0 1=1 2=1.0
BinaryOp                 mul_199                  2 1 1263 1264 1265 0=2
Split                    splitncnn_92             1 3 1265 1266 1267 1268
Gemm                     gemm_177                 1 1 1268 1269 10=-1 2=0 3=1 4=0 5=1 6=1 7=0 8=3840 9=3840
Gemm                     gemm_178                 1 1 1267 1270 10=-1 2=0 3=1 4=0 5=1 6=1 7=0 8=3840 9=3840
Gemm                     gemm_179                 1 1 1266 1271 10=-1 2=0 3=1 4=0 5=1 6=1 7=0 8=3840 9=3840
Reshape                  unflatten_696            1 1 1269 1272 0=128 1=30 2=-1
Reshape                  unflatten_697            1 1 1270 1273 0=128 1=30 2=-1
Reshape                  unflatten_698            1 1 1271 1274 0=128 1=30 2=-1
RMSNorm                  rmsn_463                 1 1 1272 1275 0=128 1=1.000000e-05 2=1
RMSNorm                  rmsn_464                 1 1 1273 1276 0=128 1=1.000000e-05 2=1
Permute                  permute_598              1 1 1275 1277 0=2
RotaryEmbed              rope_44                  3 1 1277 19 80 1278 0=1
Permute                  permute_599              1 1 1276 1279 0=2
RotaryEmbed              rope_45                  3 1 1279 18 79 1280 0=1
Permute                  permute_600              1 1 1274 1281 0=2
SDPA                     sdpa_772                 3 1 1278 1280 1281 1282 5=0
Permute                  permute_601              1 1 1282 1283 0=2
Reshape                  flatten_742              1 1 1283 1284 0=3840 1=-1
Gemm                     gemm_180                 1 1 1284 1285 10=-1 2=0 3=1 4=0 5=1 6=1 7=0 8=3840 9=3840
RMSNorm                  rmsn_465                 1 1 1285 1286 0=3840 1=1.000000e-05 2=1
BinaryOp                 mul_200                  2 1 1261 1286 1287 0=2
BinaryOp                 add_201                  2 1 1254 1287 1288 0=0
Split                    splitncnn_93             1 2 1288 1289 1290
RMSNorm                  rmsn_466                 1 1 1290 1291 0=3840 1=1.000000e-05 2=1
BinaryOp                 add_202                  1 1 1259 1292 0=0 1=1 2=1.0
BinaryOp                 mul_203                  2 1 1291 1292 1293 0=2
Split                    splitncnn_94             1 2 1293 1294 1295
Gemm                     gemm_181                 1 1 1295 1296 10=-1 2=0 3=1 4=0 5=1 6=1 7=0 8=10240 9=3840
Gemm                     gemm_182                 1 1 1294 1297 10=-1 2=0 3=1 4=0 5=1 6=1 7=0 8=10240 9=3840
Swish                    silu_262                 1 1 1296 1298
BinaryOp                 mul_204                  2 1 1298 1297 1299 0=2
Gemm                     gemm_183                 1 1 1299 1300 10=-1 2=0 3=1 4=0 5=1 6=1 7=0 8=3840 9=10240
RMSNorm                  rmsn_467                 1 1 1300 1301 0=3840 1=1.000000e-05 2=1
BinaryOp                 mul_205                  2 1 1262 1301 1302 0=2
BinaryOp                 add_206                  2 1 1289 1302 1303 0=0
Split                    splitncnn_95             1 2 1303 1304 1305
Gemm                     gemm_184                 1 1 132 1306 10=4 2=0 3=1 4=0 5=1 6=1 7=1 8=15360 9=256
Slice                    chunk_23                 1 4 1306 1307 1308 1309 1310 -23300=4,-233,-233,-233,-233 1=1
TanH                     tanh_316                 1 1 1308 1311
TanH                     tanh_317                 1 1 1310 1312
RMSNorm                  rmsn_468                 1 1 1305 1313 0=3840 1=1.000000e-05 2=1
BinaryOp                 add_207                  1 1 1307 1314 0=0 1=1 2=1.0
BinaryOp                 mul_208                  2 1 1313 1314 1315 0=2
Split                    splitncnn_96             1 3 1315 1316 1317 1318
Gemm                     gemm_185                 1 1 1318 1319 10=-1 2=0 3=1 4=0 5=1 6=1 7=0 8=3840 9=3840
Gemm                     gemm_186                 1 1 1317 1320 10=-1 2=0 3=1 4=0 5=1 6=1 7=0 8=3840 9=3840
Gemm                     gemm_187                 1 1 1316 1321 10=-1 2=0 3=1 4=0 5=1 6=1 7=0 8=3840 9=3840
Reshape                  unflatten_699            1 1 1319 1322 0=128 1=30 2=-1
Reshape                  unflatten_700            1 1 1320 1323 0=128 1=30 2=-1
Reshape                  unflatten_701            1 1 1321 1324 0=128 1=30 2=-1
RMSNorm                  rmsn_469                 1 1 1322 1325 0=128 1=1.000000e-05 2=1
RMSNorm                  rmsn_470                 1 1 1323 1326 0=128 1=1.000000e-05 2=1
Permute                  permute_602              1 1 1325 1327 0=2
RotaryEmbed              rope_46                  3 1 1327 17 78 1328 0=1
Permute                  permute_603              1 1 1326 1329 0=2
RotaryEmbed              rope_47                  3 1 1329 16 77 1330 0=1
Permute                  permute_604              1 1 1324 1331 0=2
SDPA                     sdpa_773                 3 1 1328 1330 1331 1332 5=0
Permute                  permute_605              1 1 1332 1333 0=2
Reshape                  flatten_743              1 1 1333 1334 0=3840 1=-1
Gemm                     gemm_188                 1 1 1334 1335 10=-1 2=0 3=1 4=0 5=1 6=1 7=0 8=3840 9=3840
RMSNorm                  rmsn_471                 1 1 1335 1336 0=3840 1=1.000000e-05 2=1
BinaryOp                 mul_209                  2 1 1311 1336 1337 0=2
BinaryOp                 add_210                  2 1 1304 1337 1338 0=0
Split                    splitncnn_97             1 2 1338 1339 1340
RMSNorm                  rmsn_472                 1 1 1340 1341 0=3840 1=1.000000e-05 2=1
BinaryOp                 add_211                  1 1 1309 1342 0=0 1=1 2=1.0
BinaryOp                 mul_212                  2 1 1341 1342 1343 0=2
Split                    splitncnn_98             1 2 1343 1344 1345
Gemm                     gemm_189                 1 1 1345 1346 10=-1 2=0 3=1 4=0 5=1 6=1 7=0 8=10240 9=3840
Gemm                     gemm_190                 1 1 1344 1347 10=-1 2=0 3=1 4=0 5=1 6=1 7=0 8=10240 9=3840
Swish                    silu_263                 1 1 1346 1348
BinaryOp                 mul_213                  2 1 1348 1347 1349 0=2
Gemm                     gemm_191                 1 1 1349 1350 10=-1 2=0 3=1 4=0 5=1 6=1 7=0 8=3840 9=10240
RMSNorm                  rmsn_473                 1 1 1350 1351 0=3840 1=1.000000e-05 2=1
BinaryOp                 mul_214                  2 1 1312 1351 1352 0=2
BinaryOp                 add_215                  2 1 1339 1352 1353 0=0
Split                    splitncnn_99             1 2 1353 1354 1355
Gemm                     gemm_192                 1 1 131 1356 10=4 2=0 3=1 4=0 5=1 6=1 7=1 8=15360 9=256
Slice                    chunk_24                 1 4 1356 1357 1358 1359 1360 -23300=4,-233,-233,-233,-233 1=1
TanH                     tanh_318                 1 1 1358 1361
TanH                     tanh_319                 1 1 1360 1362
RMSNorm                  rmsn_474                 1 1 1355 1363 0=3840 1=1.000000e-05 2=1
BinaryOp                 add_216                  1 1 1357 1364 0=0 1=1 2=1.0
BinaryOp                 mul_217                  2 1 1363 1364 1365 0=2
Split                    splitncnn_100            1 3 1365 1366 1367 1368
Gemm                     gemm_193                 1 1 1368 1369 10=-1 2=0 3=1 4=0 5=1 6=1 7=0 8=3840 9=3840
Gemm                     gemm_194                 1 1 1367 1370 10=-1 2=0 3=1 4=0 5=1 6=1 7=0 8=3840 9=3840
Gemm                     gemm_195                 1 1 1366 1371 10=-1 2=0 3=1 4=0 5=1 6=1 7=0 8=3840 9=3840
Reshape                  unflatten_702            1 1 1369 1372 0=128 1=30 2=-1
Reshape                  unflatten_703            1 1 1370 1373 0=128 1=30 2=-1
Reshape                  unflatten_704            1 1 1371 1374 0=128 1=30 2=-1
RMSNorm                  rmsn_475                 1 1 1372 1375 0=128 1=1.000000e-05 2=1
RMSNorm                  rmsn_476                 1 1 1373 1376 0=128 1=1.000000e-05 2=1
Permute                  permute_606              1 1 1375 1377 0=2
RotaryEmbed              rope_48                  3 1 1377 15 76 1378 0=1
Permute                  permute_607              1 1 1376 1379 0=2
RotaryEmbed              rope_49                  3 1 1379 14 75 1380 0=1
Permute                  permute_608              1 1 1374 1381 0=2
SDPA                     sdpa_774                 3 1 1378 1380 1381 1382 5=0
Permute                  permute_609              1 1 1382 1383 0=2
Reshape                  flatten_744              1 1 1383 1384 0=3840 1=-1
Gemm                     gemm_196                 1 1 1384 1385 10=-1 2=0 3=1 4=0 5=1 6=1 7=0 8=3840 9=3840
RMSNorm                  rmsn_477                 1 1 1385 1386 0=3840 1=1.000000e-05 2=1
BinaryOp                 mul_218                  2 1 1361 1386 1387 0=2
BinaryOp                 add_219                  2 1 1354 1387 1388 0=0
Split                    splitncnn_101            1 2 1388 1389 1390
RMSNorm                  rmsn_478                 1 1 1390 1391 0=3840 1=1.000000e-05 2=1
BinaryOp                 add_220                  1 1 1359 1392 0=0 1=1 2=1.0
BinaryOp                 mul_221                  2 1 1391 1392 1393 0=2
Split                    splitncnn_102            1 2 1393 1394 1395
Gemm                     gemm_197                 1 1 1395 1396 10=-1 2=0 3=1 4=0 5=1 6=1 7=0 8=10240 9=3840
Gemm                     gemm_198                 1 1 1394 1397 10=-1 2=0 3=1 4=0 5=1 6=1 7=0 8=10240 9=3840
Swish                    silu_264                 1 1 1396 1398
BinaryOp                 mul_222                  2 1 1398 1397 1399 0=2
Gemm                     gemm_199                 1 1 1399 1400 10=-1 2=0 3=1 4=0 5=1 6=1 7=0 8=3840 9=10240
RMSNorm                  rmsn_479                 1 1 1400 1401 0=3840 1=1.000000e-05 2=1
BinaryOp                 mul_223                  2 1 1362 1401 1402 0=2
BinaryOp                 add_224                  2 1 1389 1402 1403 0=0
Split                    splitncnn_103            1 2 1403 1404 1405
Gemm                     gemm_200                 1 1 130 1406 10=4 2=0 3=1 4=0 5=1 6=1 7=1 8=15360 9=256
Slice                    chunk_25                 1 4 1406 1407 1408 1409 1410 -23300=4,-233,-233,-233,-233 1=1
TanH                     tanh_320                 1 1 1408 1411
TanH                     tanh_321                 1 1 1410 1412
RMSNorm                  rmsn_480                 1 1 1405 1413 0=3840 1=1.000000e-05 2=1
BinaryOp                 add_225                  1 1 1407 1414 0=0 1=1 2=1.0
BinaryOp                 mul_226                  2 1 1413 1414 1415 0=2
Split                    splitncnn_104            1 3 1415 1416 1417 1418
Gemm                     gemm_201                 1 1 1418 1419 10=-1 2=0 3=1 4=0 5=1 6=1 7=0 8=3840 9=3840
Gemm                     gemm_202                 1 1 1417 1420 10=-1 2=0 3=1 4=0 5=1 6=1 7=0 8=3840 9=3840
Gemm                     gemm_203                 1 1 1416 1421 10=-1 2=0 3=1 4=0 5=1 6=1 7=0 8=3840 9=3840
Reshape                  unflatten_705            1 1 1419 1422 0=128 1=30 2=-1
Reshape                  unflatten_706            1 1 1420 1423 0=128 1=30 2=-1
Reshape                  unflatten_707            1 1 1421 1424 0=128 1=30 2=-1
RMSNorm                  rmsn_481                 1 1 1422 1425 0=128 1=1.000000e-05 2=1
RMSNorm                  rmsn_482                 1 1 1423 1426 0=128 1=1.000000e-05 2=1
Permute                  permute_610              1 1 1425 1427 0=2
RotaryEmbed              rope_50                  3 1 1427 13 74 1428 0=1
Permute                  permute_611              1 1 1426 1429 0=2
RotaryEmbed              rope_51                  3 1 1429 12 73 1430 0=1
Permute                  permute_612              1 1 1424 1431 0=2
SDPA                     sdpa_775                 3 1 1428 1430 1431 1432 5=0
Permute                  permute_613              1 1 1432 1433 0=2
Reshape                  flatten_745              1 1 1433 1434 0=3840 1=-1
Gemm                     gemm_204                 1 1 1434 1435 10=-1 2=0 3=1 4=0 5=1 6=1 7=0 8=3840 9=3840
RMSNorm                  rmsn_483                 1 1 1435 1436 0=3840 1=1.000000e-05 2=1
BinaryOp                 mul_227                  2 1 1411 1436 1437 0=2
BinaryOp                 add_228                  2 1 1404 1437 1438 0=0
Split                    splitncnn_105            1 2 1438 1439 1440
RMSNorm                  rmsn_484                 1 1 1440 1441 0=3840 1=1.000000e-05 2=1
BinaryOp                 add_229                  1 1 1409 1442 0=0 1=1 2=1.0
BinaryOp                 mul_230                  2 1 1441 1442 1443 0=2
Split                    splitncnn_106            1 2 1443 1444 1445
Gemm                     gemm_205                 1 1 1445 1446 10=-1 2=0 3=1 4=0 5=1 6=1 7=0 8=10240 9=3840
Gemm                     gemm_206                 1 1 1444 1447 10=-1 2=0 3=1 4=0 5=1 6=1 7=0 8=10240 9=3840
Swish                    silu_265                 1 1 1446 1448
BinaryOp                 mul_231                  2 1 1448 1447 1449 0=2
Gemm                     gemm_207                 1 1 1449 1450 10=-1 2=0 3=1 4=0 5=1 6=1 7=0 8=3840 9=10240
RMSNorm                  rmsn_485                 1 1 1450 1451 0=3840 1=1.000000e-05 2=1
BinaryOp                 mul_232                  2 1 1412 1451 1452 0=2
BinaryOp                 add_233                  2 1 1439 1452 1453 0=0
Split                    splitncnn_107            1 2 1453 1454 1455
Gemm                     gemm_208                 1 1 129 1456 10=4 2=0 3=1 4=0 5=1 6=1 7=1 8=15360 9=256
Slice                    chunk_26                 1 4 1456 1457 1458 1459 1460 -23300=4,-233,-233,-233,-233 1=1
TanH                     tanh_322                 1 1 1458 1461
TanH                     tanh_323                 1 1 1460 1462
RMSNorm                  rmsn_486                 1 1 1455 1463 0=3840 1=1.000000e-05 2=1
BinaryOp                 add_234                  1 1 1457 1464 0=0 1=1 2=1.0
BinaryOp                 mul_235                  2 1 1463 1464 1465 0=2
Split                    splitncnn_108            1 3 1465 1466 1467 1468
Gemm                     gemm_209                 1 1 1468 1469 10=-1 2=0 3=1 4=0 5=1 6=1 7=0 8=3840 9=3840
Gemm                     gemm_210                 1 1 1467 1470 10=-1 2=0 3=1 4=0 5=1 6=1 7=0 8=3840 9=3840
Gemm                     gemm_211                 1 1 1466 1471 10=-1 2=0 3=1 4=0 5=1 6=1 7=0 8=3840 9=3840
Reshape                  unflatten_708            1 1 1469 1472 0=128 1=30 2=-1
Reshape                  unflatten_709            1 1 1470 1473 0=128 1=30 2=-1
Reshape                  unflatten_710            1 1 1471 1474 0=128 1=30 2=-1
RMSNorm                  rmsn_487                 1 1 1472 1475 0=128 1=1.000000e-05 2=1
RMSNorm                  rmsn_488                 1 1 1473 1476 0=128 1=1.000000e-05 2=1
Permute                  permute_614              1 1 1475 1477 0=2
RotaryEmbed              rope_52                  3 1 1477 11 72 1478 0=1
Permute                  permute_615              1 1 1476 1479 0=2
RotaryEmbed              rope_53                  3 1 1479 10 71 1480 0=1
Permute                  permute_616              1 1 1474 1481 0=2
SDPA                     sdpa_776                 3 1 1478 1480 1481 1482 5=0
Permute                  permute_617              1 1 1482 1483 0=2
Reshape                  flatten_746              1 1 1483 1484 0=3840 1=-1
Gemm                     gemm_212                 1 1 1484 1485 10=-1 2=0 3=1 4=0 5=1 6=1 7=0 8=3840 9=3840
RMSNorm                  rmsn_489                 1 1 1485 1486 0=3840 1=1.000000e-05 2=1
BinaryOp                 mul_236                  2 1 1461 1486 1487 0=2
BinaryOp                 add_237                  2 1 1454 1487 1488 0=0
Split                    splitncnn_109            1 2 1488 1489 1490
RMSNorm                  rmsn_490                 1 1 1490 1491 0=3840 1=1.000000e-05 2=1
BinaryOp                 add_238                  1 1 1459 1492 0=0 1=1 2=1.0
BinaryOp                 mul_239                  2 1 1491 1492 1493 0=2
Split                    splitncnn_110            1 2 1493 1494 1495
Gemm                     gemm_213                 1 1 1495 1496 10=-1 2=0 3=1 4=0 5=1 6=1 7=0 8=10240 9=3840
Gemm                     gemm_214                 1 1 1494 1497 10=-1 2=0 3=1 4=0 5=1 6=1 7=0 8=10240 9=3840
Swish                    silu_266                 1 1 1496 1498
BinaryOp                 mul_240                  2 1 1498 1497 1499 0=2
Gemm                     gemm_215                 1 1 1499 1500 10=-1 2=0 3=1 4=0 5=1 6=1 7=0 8=3840 9=10240
RMSNorm                  rmsn_491                 1 1 1500 1501 0=3840 1=1.000000e-05 2=1
BinaryOp                 mul_241                  2 1 1462 1501 1502 0=2
BinaryOp                 add_242                  2 1 1489 1502 1503 0=0
Split                    splitncnn_111            1 2 1503 1504 1505
Gemm                     gemm_216                 1 1 128 1506 10=4 2=0 3=1 4=0 5=1 6=1 7=1 8=15360 9=256
Slice                    chunk_27                 1 4 1506 1507 1508 1509 1510 -23300=4,-233,-233,-233,-233 1=1
TanH                     tanh_324                 1 1 1508 1511
TanH                     tanh_325                 1 1 1510 1512
RMSNorm                  rmsn_492                 1 1 1505 1513 0=3840 1=1.000000e-05 2=1
BinaryOp                 add_243                  1 1 1507 1514 0=0 1=1 2=1.0
BinaryOp                 mul_244                  2 1 1513 1514 1515 0=2
Split                    splitncnn_112            1 3 1515 1516 1517 1518
Gemm                     gemm_217                 1 1 1518 1519 10=-1 2=0 3=1 4=0 5=1 6=1 7=0 8=3840 9=3840
Gemm                     gemm_218                 1 1 1517 1520 10=-1 2=0 3=1 4=0 5=1 6=1 7=0 8=3840 9=3840
Gemm                     gemm_219                 1 1 1516 1521 10=-1 2=0 3=1 4=0 5=1 6=1 7=0 8=3840 9=3840
Reshape                  unflatten_711            1 1 1519 1522 0=128 1=30 2=-1
Reshape                  unflatten_712            1 1 1520 1523 0=128 1=30 2=-1
Reshape                  unflatten_713            1 1 1521 1524 0=128 1=30 2=-1
RMSNorm                  rmsn_493                 1 1 1522 1525 0=128 1=1.000000e-05 2=1
RMSNorm                  rmsn_494                 1 1 1523 1526 0=128 1=1.000000e-05 2=1
Permute                  permute_618              1 1 1525 1527 0=2
RotaryEmbed              rope_54                  3 1 1527 9 70 1528 0=1
Permute                  permute_619              1 1 1526 1529 0=2
RotaryEmbed              rope_55                  3 1 1529 8 69 1530 0=1
Permute                  permute_620              1 1 1524 1531 0=2
SDPA                     sdpa_777                 3 1 1528 1530 1531 1532 5=0
Permute                  permute_621              1 1 1532 1533 0=2
Reshape                  flatten_747              1 1 1533 1534 0=3840 1=-1
Gemm                     gemm_220                 1 1 1534 1535 10=-1 2=0 3=1 4=0 5=1 6=1 7=0 8=3840 9=3840
RMSNorm                  rmsn_495                 1 1 1535 1536 0=3840 1=1.000000e-05 2=1
BinaryOp                 mul_245                  2 1 1511 1536 1537 0=2
BinaryOp                 add_246                  2 1 1504 1537 1538 0=0
Split                    splitncnn_113            1 2 1538 1539 1540
RMSNorm                  rmsn_496                 1 1 1540 1541 0=3840 1=1.000000e-05 2=1
BinaryOp                 add_247                  1 1 1509 1542 0=0 1=1 2=1.0
BinaryOp                 mul_248                  2 1 1541 1542 1543 0=2
Split                    splitncnn_114            1 2 1543 1544 1545
Gemm                     gemm_221                 1 1 1545 1546 10=-1 2=0 3=1 4=0 5=1 6=1 7=0 8=10240 9=3840
Gemm                     gemm_222                 1 1 1544 1547 10=-1 2=0 3=1 4=0 5=1 6=1 7=0 8=10240 9=3840
Swish                    silu_267                 1 1 1546 1548
BinaryOp                 mul_249                  2 1 1548 1547 1549 0=2
Gemm                     gemm_223                 1 1 1549 1550 10=-1 2=0 3=1 4=0 5=1 6=1 7=0 8=3840 9=10240
RMSNorm                  rmsn_497                 1 1 1550 1551 0=3840 1=1.000000e-05 2=1
BinaryOp                 mul_250                  2 1 1512 1551 1552 0=2
BinaryOp                 add_251                  2 1 1539 1552 1553 0=0
Split                    splitncnn_115            1 2 1553 1554 1555
Gemm                     gemm_224                 1 1 127 1556 10=4 2=0 3=1 4=0 5=1 6=1 7=1 8=15360 9=256
Slice                    chunk_28                 1 4 1556 1557 1558 1559 1560 -23300=4,-233,-233,-233,-233 1=1
TanH                     tanh_326                 1 1 1558 1561
TanH                     tanh_327                 1 1 1560 1562
RMSNorm                  rmsn_498                 1 1 1555 1563 0=3840 1=1.000000e-05 2=1
BinaryOp                 add_252                  1 1 1557 1564 0=0 1=1 2=1.0
BinaryOp                 mul_253                  2 1 1563 1564 1565 0=2
Split                    splitncnn_116            1 3 1565 1566 1567 1568
Gemm                     gemm_225                 1 1 1568 1569 10=-1 2=0 3=1 4=0 5=1 6=1 7=0 8=3840 9=3840
Gemm                     gemm_226                 1 1 1567 1570 10=-1 2=0 3=1 4=0 5=1 6=1 7=0 8=3840 9=3840
Gemm                     gemm_227                 1 1 1566 1571 10=-1 2=0 3=1 4=0 5=1 6=1 7=0 8=3840 9=3840
Reshape                  unflatten_714            1 1 1569 1572 0=128 1=30 2=-1
Reshape                  unflatten_715            1 1 1570 1573 0=128 1=30 2=-1
Reshape                  unflatten_716            1 1 1571 1574 0=128 1=30 2=-1
RMSNorm                  rmsn_499                 1 1 1572 1575 0=128 1=1.000000e-05 2=1
RMSNorm                  rmsn_500                 1 1 1573 1576 0=128 1=1.000000e-05 2=1
Permute                  permute_622              1 1 1575 1577 0=2
RotaryEmbed              rope_56                  3 1 1577 7 68 1578 0=1
Permute                  permute_623              1 1 1576 1579 0=2
RotaryEmbed              rope_57                  3 1 1579 6 67 1580 0=1
Permute                  permute_624              1 1 1574 1581 0=2
SDPA                     sdpa_778                 3 1 1578 1580 1581 1582 5=0
Permute                  permute_625              1 1 1582 1583 0=2
Reshape                  flatten_748              1 1 1583 1584 0=3840 1=-1
Gemm                     gemm_228                 1 1 1584 1585 10=-1 2=0 3=1 4=0 5=1 6=1 7=0 8=3840 9=3840
RMSNorm                  rmsn_501                 1 1 1585 1586 0=3840 1=1.000000e-05 2=1
BinaryOp                 mul_254                  2 1 1561 1586 1587 0=2
BinaryOp                 add_255                  2 1 1554 1587 1588 0=0
Split                    splitncnn_117            1 2 1588 1589 1590
RMSNorm                  rmsn_502                 1 1 1590 1591 0=3840 1=1.000000e-05 2=1
BinaryOp                 add_256                  1 1 1559 1592 0=0 1=1 2=1.0
BinaryOp                 mul_257                  2 1 1591 1592 1593 0=2
Split                    splitncnn_118            1 2 1593 1594 1595
Gemm                     gemm_229                 1 1 1595 1596 10=-1 2=0 3=1 4=0 5=1 6=1 7=0 8=10240 9=3840
Gemm                     gemm_230                 1 1 1594 1597 10=-1 2=0 3=1 4=0 5=1 6=1 7=0 8=10240 9=3840
Swish                    silu_268                 1 1 1596 1598
BinaryOp                 mul_258                  2 1 1598 1597 1599 0=2
Gemm                     gemm_231                 1 1 1599 1600 10=-1 2=0 3=1 4=0 5=1 6=1 7=0 8=3840 9=10240
RMSNorm                  rmsn_503                 1 1 1600 1601 0=3840 1=1.000000e-05 2=1
BinaryOp                 mul_259                  2 1 1562 1601 1602 0=2
BinaryOp                 add_260                  2 1 1589 1602 1603 0=0
Split                    splitncnn_119            1 2 1603 1604 1605
Gemm                     gemm_232                 1 1 126 1606 10=4 2=0 3=1 4=0 5=1 6=1 7=1 8=15360 9=256
Slice                    chunk_29                 1 4 1606 1607 1608 1609 1610 -23300=4,-233,-233,-233,-233 1=1
TanH                     tanh_328                 1 1 1608 1611
TanH                     tanh_329                 1 1 1610 1612
RMSNorm                  rmsn_504                 1 1 1605 1613 0=3840 1=1.000000e-05 2=1
BinaryOp                 add_261                  1 1 1607 1614 0=0 1=1 2=1.0
BinaryOp                 mul_262                  2 1 1613 1614 1615 0=2
Split                    splitncnn_120            1 3 1615 1616 1617 1618
Gemm                     gemm_233                 1 1 1618 1619 10=-1 2=0 3=1 4=0 5=1 6=1 7=0 8=3840 9=3840
Gemm                     gemm_234                 1 1 1617 1620 10=-1 2=0 3=1 4=0 5=1 6=1 7=0 8=3840 9=3840
Gemm                     gemm_235                 1 1 1616 1621 10=-1 2=0 3=1 4=0 5=1 6=1 7=0 8=3840 9=3840
Reshape                  unflatten_717            1 1 1619 1622 0=128 1=30 2=-1
Reshape                  unflatten_718            1 1 1620 1623 0=128 1=30 2=-1
Reshape                  unflatten_719            1 1 1621 1624 0=128 1=30 2=-1
RMSNorm                  rmsn_505                 1 1 1622 1625 0=128 1=1.000000e-05 2=1
RMSNorm                  rmsn_506                 1 1 1623 1626 0=128 1=1.000000e-05 2=1
Permute                  permute_626              1 1 1625 1627 0=2
RotaryEmbed              rope_58                  3 1 1627 5 66 1628 0=1
Permute                  permute_627              1 1 1626 1629 0=2
RotaryEmbed              rope_59                  3 1 1629 4 65 1630 0=1
Permute                  permute_628              1 1 1624 1631 0=2
SDPA                     sdpa_779                 3 1 1628 1630 1631 1632 5=0
Permute                  permute_629              1 1 1632 1633 0=2
Reshape                  flatten_749              1 1 1633 1634 0=3840 1=-1
Gemm                     gemm_236                 1 1 1634 1635 10=-1 2=0 3=1 4=0 5=1 6=1 7=0 8=3840 9=3840
RMSNorm                  rmsn_507                 1 1 1635 1636 0=3840 1=1.000000e-05 2=1
BinaryOp                 mul_263                  2 1 1611 1636 1637 0=2
BinaryOp                 add_264                  2 1 1604 1637 1638 0=0
Split                    splitncnn_121            1 2 1638 1639 1640
RMSNorm                  rmsn_508                 1 1 1640 1641 0=3840 1=1.000000e-05 2=1
BinaryOp                 add_265                  1 1 1609 1642 0=0 1=1 2=1.0
BinaryOp                 mul_266                  2 1 1641 1642 1643 0=2
Split                    splitncnn_122            1 2 1643 1644 1645
Gemm                     gemm_237                 1 1 1645 1646 10=-1 2=0 3=1 4=0 5=1 6=1 7=0 8=10240 9=3840
Gemm                     gemm_238                 1 1 1644 1647 10=-1 2=0 3=1 4=0 5=1 6=1 7=0 8=10240 9=3840
Swish                    silu_269                 1 1 1646 1648
BinaryOp                 mul_267                  2 1 1648 1647 1649 0=2
Gemm                     gemm_239                 1 1 1649 1650 10=-1 2=0 3=1 4=0 5=1 6=1 7=0 8=3840 9=10240
RMSNorm                  rmsn_509                 1 1 1650 1651 0=3840 1=1.000000e-05 2=1
BinaryOp                 mul_268                  2 1 1612 1651 1652 0=2
BinaryOp                 add_269                  2 1 1639 1652 out0 0=0
