7767517
8 8
Input                    in0                      0 1 in0
Input                    in1                      0 1 in1
Swish                    silu_3                   1 1 in1 2
Gemm                     gemm_0                   1 1 2 3 10=4 2=0 3=1 4=0 5=1 6=1 7=1 8=3840 9=256
LayerNorm                ln_2                     1 1 in0 4 0=3840 1=1.000000e-06 2=0
BinaryOp                 add_0                    1 1 3 5 0=0 1=1 2=1.0
BinaryOp                 mul_1                    2 1 4 5 6 0=2
Gemm                     gemm_1                   1 1 6 out0 10=4 2=0 3=1 4=0 5=1 6=1 7=0 8=64 9=3840
